classifier2.pt (torch, 403241 bytes, 12 tensors)

conv1.weight f4 [8, 3, 5, 5]
00000000: b2f5 9f3d ebbe 33bd bf85 99bc 8116 eabd
00000010: 5184 c1bd 5b2f 46bc cc47 f63d de9d 883d
00000020: 4ffe ffbd f6df 07bd e3bc e3bd 816c 9f3d
00000030: 2475 d93c f164 5f3c 84a8 3c3d 8c7b e5bc
00000040: 5c50 20bd 70fc 5c3d a7ad 8abd e517 2d3d
00000050: daf3 9bbd 23ce 86bd 1b7e 4f3d 67e0 08be
00000060: 6138 89bd f443 fd3c 187a 50bc c76d 253d
00000070: 6e2c 52bd 22d9 03bd 3f0e 673d 0456 c43c
00000080: dd93 9f3c 5c09 a3bd 4f23 a1bd 7b2b c33d
00000090: 8118 da3d b929 b73d a914 c33d ab12 eebd
000000a0: 95a1 c3bd b22f d33d cfc3 67bd ceef 933d
000000b0: 9827 5abd 1058 113d af1f 983d 8f27 a73d
000000c0: b158 6cbd 086d 06be 5f4a fe3c 25b3 3cbb
000000d0: 79d6 593c 3684 a5bd 142d a9bc b0a3 8cbc
000000e0: b534 d93d 694f 713d 7a4b 1bbd b7b2 363d
000000f0: 80d2 3d3d e9d5 fb3d 9649 af3d a4a8 eebc
00000100: 2e19 d13d d2ad 753d 5c37 b73c 2b95 8abc
00000110: f70b 5d3d 949a 483d acfe cebd 5b4c 443d
00000120: 9afe 1b3d 702b 0e3c 9f1e c23d 054d 5d3d
00000130: 2e78 0b3e a5b4 04bd a27d 293d d6c5 c53d
00000140: a666 f63c a1db cc3d c4de de3d bf8b b6bd
00000150: b5db fb3d dd79 013e fde4 2a3d 1883 c8bd
00000160: 0528 0e3d 338d 0cbd a3ed 94bc f338 ec3d
00000170: a158 143d efa4 f5bc 447b 813d 7e46 dc3c
00000180: b3bf f63d da75 9abc 0dd9 843d 74b9 2abc
00000190: ec57 c33d 7738 8ebd 8889 a63d 075f e33d
000001a0: 7de7 8ebb 2fc4 803d ebfe 6f3d a64a 1bbd
000001b0: 3e08 ff3d 1bc6 883c 2bb1 bc3d 566f 003e
000001c0: 80ee af3d 0613 3a3d 34df 76bd 9714 013e
000001d0: b2af 15bd 44b5 abbd f0fe bf3d 29b2 c4bc
000001e0: eaa6 c7bc 19f9 42bd 6c6d 2fbb 53c3 5f3d
000001f0: 00b1 9a3d f4b9 b9bd fc80 6b3d 866d d3bd
00000200: c24f edbd d0b3 c83c 6b7d 8dbd 3596 9a3d
00000210: f507 d0bd c028 a33d 453f f03c 65cd 6e3d
00000220: 7330 b53d c17c 8c3c 16db 903c 35c9 08bd
00000230: 2325 26bc f35b 293d d3dc ed3c 5f1a fcbc
00000240: 0d92 77bd 632f 27bd d08b d83d 223e e0bd
00000250: 55bd 2a3d 6a0d 623d 1adf 86bb 7482 6b3d
00000260: 7fc4 55bd 16bc 05bd f716 30bd e4b7 b1bb
00000270: fe2b ca3d 6348 7fbb 312b a0bd 98f6 b7bd
00000280: 551a 6cbb 837a f8bd 2b98 873d 8952 ac3d
00000290: afe5 2c3d 8be2 5bbc 6606 d9bd bde8 8cbd
000002a0: 804c 343d 6542 c3bc a7e5 863b fa52 a23d
000002b0: 2f5c b9bd 1fd2 0ebd 9f33 bc3d 2ab8 9a3c
000002c0: ada8 71bd 7386 033e adb3 f73c a611 a63d
000002d0: bcd0 8b3b ced0 d53d a512 aa3d 7bda d03d
000002e0: 66af 7c3d ff43 bcbd e440 a93c 99c2 153c
000002f0: e006 d1bd 1d62 13bd 3232 333d 17fe b73c
00000300: 3609 483d 1bc0 8ebc ae15 f23c 54f7 e7bc
00000310: cc2a 9cbd 7642 6c3d 4330 813d 7273 aabd
00000320: 98f8 b73d 5f4f e13d f871 893d 405c 9d3d
00000330: 608c 103e 7acb 383d 6532 4e3d 4daa adbd
00000340: a367 a43d e632 82bd ad6f 0d3e 3fe2 ca3c
00000350: d25b 93bb af07 e93d 98a1 87bd bbea 033e
00000360: 2552 8b3c 04df 95bb 4c30 b9bd 63bc 08bc
00000370: cc37 9cbd 2e4d cd3d a7f4 5fbd 120a 57bd
00000380: cfef ab3d 4aca 86bb d5df c2bd 5d1a a23a
00000390: 8dd3 9b3d 3945 283d 3a5c 123d 717e 6abc
000003a0: 0e97 9f3d f983 adbc 59f0 cb3d 2c1b a3bd
000003b0: 7fa5 423d 63ec babd 92f5 de3d 70c1 593d
000003c0: e7f9 3cbd 907f 67bd d1f1 04bb b73b 9a3c
000003d0: 8b1f 793d 4df9 02be d78c 9b3b cf17 473d
000003e0: 6fa6 3f3d c8ad 82bc cca1 d6bd ebe9 94bd
000003f0: 6548 0fbd d83b cbbd 256e 8d3d 35dc 0a3c
0.078105345 -0.043883245 -0.018740533 -0.114300735 -0.094490655 -0.012096251 0.12025413 0.06670736
-0.124996774 -0.03317257 -0.11120012 0.07784367 0.026545115 0.013634906 0.046059147 -0.028013013
-0.039139137 0.05395168 -0.06771403 0.042259116 -0.0761487 -0.06582286 0.050657373 -0.13366853
-0.067002065 0.030916192 -0.012724422 0.040387895 -0.051311903 -0.032189496 0.05641007 0.023966797
0.019479686 -0.079607695 -0.07868063 0.095297776 0.10649205 0.08943505 0.09525425 -0.116246544
-0.09552304 0.103118315 -0.056583222 0.072234735 -0.053260416 0.035484374 0.07427918 0.08161842
-0.05770177 -0.1312753 0.031041322 -0.0028793302 0.013295763 -0.08081858 -0.020651378 -0.017167896
0.10605756 0.058913622 -0.037913777 0.04460403 0.046343327 0.122966595 0.08558957 -0.029133148
0.10209881 0.05998022 0.022365265 -0.016916832 0.05396649 0.048975542 -0.101071686 0.04792438
0.038084604 0.0086773485 0.09478497 0.05402853 0.13620064 -0.03239884 0.04137958 0.09656875
0.030078243 0.100028284 0.10882333 -0.08913373 0.12297765 0.12644143 0.041722286 -0.09790629
0.034706134 -0.034314346 -0.01817972 0.115343 0.036217336 -0.029985873 0.06322339 0.026889082
0.120482825 -0.018855024 0.06486712 -0.010420192 0.09538254 -0.069443636 0.08131701 0.111021094
-0.0043610916 0.06287419 0.058592718 -0.037912987 0.12452744 0.016696027 0.092134796 0.12542471
0.08590412 0.0454283 -0.060271457 0.1260551 -0.03654451 -0.08384183 0.09374797 -0.024010735
-0.024371583 -0.04760084 -0.0026768101 0.054629635 0.07553291 -0.09068671 0.057496056 -0.10323624
-0.11587478 0.024499804 -0.06908687 0.07548181 -0.10157768 0.07966757 0.029327044 0.05830135
0.088471316 0.017149331 0.017682593 -0.03339501 -0.01014069 0.041347455 0.029035961 -0.030774293
-0.06044202 -0.040816676 0.10573542 -0.10949351 0.041684467 0.055188574 -0.0041159512 0.057497457
-0.052189346 -0.032650076 -0.04299065 -0.005423533 0.09871672 -0.0038953058 -0.07820738 -0.08982581
-0.0036026437 -0.12132742 0.066208206 0.0841418 0.04221123 -0.013420711 -0.105969235 -0.06880329
0.04401827 -0.02383537 0.004116732 0.07925983 -0.09050786 -0.034868356 0.091895334 0.018886644
-0.058998752 0.12844257 0.030237043 0.08108835 0.0042668264 0.10440217 0.083043374 0.10197922
0.06169071 -0.09192657 0.020660825 0.009140634 -0.102063894 -0.03598224 0.04374904 0.022460027
0.04883691 -0.017425587 0.029551353 -0.028316177 -0.0762535 0.05768057 0.06308033 -0.08322801
0.08982962 0.11001467 0.06711191 0.07683611 0.14116049 0.045115925 0.05034103 -0.08479748
0.0802758 -0.06357364 0.13812132 0.024766086 -0.00449703 0.11378419 -0.066226184 0.12882511
0.017006943 -0.0045737047 -0.09042415 -0.008345696 -0.0762783 0.100244865 -0.054676678 -0.05249984
0.08395349 -0.00411347 -0.09515349 0.0012367476 0.076087095 0.04108164 0.035732485 -0.014312373
0.07792483 -0.021181094 0.09957952 -0.07964167 0.04752111 -0.091271184 0.108866826 0.053162992
-0.046136763 -0.056518137 -0.0020285735 0.018827302 0.060821097 -0.12790413 0.004747014 0.04860669
0.046789583 -0.015952006 -0.10480079 -0.07271179 -0.03498115 -0.09923524 0.06905774 0.008475353

conv1.bias f4 [8]
00000000: 3fad 07bc 0503 afbc 1b92 8d3d 798d fdbd
00000010: 703b 773d 848d 993d 2bdc 6ebd 3a31 603d
-0.008281051 -0.021363745 0.06912633 -0.123804994 0.06035942 0.07497695 -0.058315437 0.054734446

conv2.weight f4 [32, 8, 5, 5]
00000000: f78e 53bd 78ae 133d 6530 87bd 9ffa e5ba
00000010: dc17 c3bc 39cd e63b 78d0 c7bc 6548 b6bc
00000020: b002 1bbc 130b 7dbb 76ed 46bd 37f4 2fbb
00000030: ec9d 84bb 3f8e 61bd 6323 f3bc 1db1 fcbb
00000040: fc81 aa3b 6595 703c e2c2 233c 7625 f0bc
00000050: 2560 edbc bc24 8abd 6e26 55bd 2819 33bd
00000060: d811 a13c a401 8b3c 957c b2bc bf41 6bbd
00000070: d043 4bbd 913d 073d 58d0 87bd 9c98 623d
00000080: 978b e13c 7aec 8bbb 5e93 8c3c 0b5f 8f3d
00000090: ca53 893d f235 fa3c e7e6 9b3d 0707 393b
000000a0: 04b5 88bc 8a32 debb bf8c 583d f34d c9bc
000000b0: a678 213d a00c 4e3d 6649 5ebd 1a7d aabc
000000c0: bebb 60bd 297e 7fbd 6dfe 92bd 8aaa 393d
000000d0: c851 40bd 89a3 0dbc fb40 5cbd 88a0 9abb
000000e0: 0f2a 7bbd e06b 00bb c1d9 56bc d06d c4bc
000000f0: 1353 8a3d 209f 3f3d 40b6 7fbd 2a1f 1b3c
00000100: 349e 223c 5c34 b53d 76d4 4c3d 4845 933d
00000110: b697 803d aa3a 953d a1d4 c0bc a156 863d
00000120: 556e 34bd 26bb 7b3d ac9f 3dbd 9742 3fbd
00000130: fa85 263c 630f 24bd f408 7abc 054e 97bd
00000140: 1948 d0bc a644 6abb a760 11bd 8992 9cbd
00000150: 180b cbbc c4b2 b43c 608e b1bd 57f6 b53c
00000160: 73ee 8bbc e62c 6b3d 1de5 473d ad41 8f3c
00000170: 505c ee3c e69a 433d 5f8c fc3a 334d 8b3d
00000180: 214a 9dbb 6f80 bd3c 28d4 55bc 15e1 bbbd
00000190: 9a4e bfbb 6296 32bc 80cd 103d 2a88 313d
000001a0: 8e95 b2bc 85bc 04bd 58d0 15bb 7459 56bc
000001b0: 61a6 963d ac95 65bd 7a1d 703d 04d0 b13c
000001c0: aeed d3bb 10d5 fa3c aafc ae3c 79b4 ef3b
000001d0: 4eed 2ebd 93af f13c f84e 3e3d aa3b 223d
000001e0: 5c82 7ebd 77c1 59bd ee7c 35bd beb1 053d
000001f0: 189f b2bb ce2b 9b3b 0a8e 00bd d70c 31bd
00000200: f4f3 9a3d 98d4 b8bc 0700 643d 668f 8f3d
00000210: ec5b 513b 2a4f 733d 25e3 94bc 6bf6 8abc
00000220: d613 023d 4bcf a7bc 3c50 26bd 3576 703d
00000230: 58df b8bd 7e9b 75bd 4fd7 93bd e699 8cbd
00000240: 2771 80bd a799 efbc 8ec5 b23d 85ec aabc
00000250: a3fe 1a3d 645e 433c 69b0 c9bb 7a0b b03d
00000260: b687 6e3d a697 793d 3b97 f43c 0f90 44bd
00000270: e432 883c c3c2 10bd cb61 fabc 6d0a 923c
00000280: 7967 e43c 1a8d adbd 02a7 85bd 38ae 013d
00000290: 31ee f5bc f5b7 eabd cb00 e6bd 72a7 44bd
000002a0: eadf 2dbc 6fa5 98bc b0d0 5e3c 8e5f 5d3c
000002b0: dc3a 17b7 6295 c13b bd62 a33d 92e7 0fbd
000002c0: 7c99 dc3c 2def 2e3d 7212 dabb 154d 4cbc
000002d0: 7484 2dbd e942 313d 1f12 48bd cb0b dfbb
000002e0: 75a6 373d 8451 d03c 94f7 95ba 8d19 6cbd
000002f0: c175 91bd 060b 693d c273 64bd 0455 33bd
00000300: 6ddb 8dbd 6fc3 af3b 67ef 2bbd a384 39bc
00000310: a248 963d 89d9 2abd 8db5 a43c 7663 34bd
00000320: 4eaa 7fbc d30a b1bc 0cac a73d e030 a53d
00000330: a21c 263c 4751 58bc 4ae7 243d 5a0e ab3d
00000340: 4440 553c dc11 fc3c 84e7 23bd 4a93 c33c
00000350: 4297 723d 6417 cd3c aaa0 ff3c efed ac39
00000360: a993 ff3b 8b60 36bd b8a5 c3bc f51e 963d
00000370: e970 373d 3ab4 033d 44d5 85bd cddd 96bd
00000380: e2a1 49bd a974 013b a317 3c3d e62e 2c3d
00000390: a253 8ebd 62f6 84bd f4d8 353d 46a1 3fbc
000003a0: fd63 093d 200a 3bbd 968e 40bd a553 013c
000003b0: c6f2 84bd 0f8e dd3a fbdd 9dbd 1c08 103c
000003c0: 1482 8e3c 1adc 2abd 9d5a 6a3d 3fb0 2dbb
000003d0: 1098 513d 1cda 0f3b 3f01 873b 247b da3c
000003e0: c4dd 493d 1c14 5abc f485 133d ae92 d73b
000003f0: a0cd 2f3d 5f2e 66bd 8220 d038 1a59 223c
-0.051650014 0.03605506 -0.066010274 -0.0017546004 -0.023815088 0.0070435074 -0.024391398 -0.022251317
-0.00946109 -0.0038611337 -0.048566304 -0.0026848444 -0.004047146 -0.055067297 -0.02967996 -0.0077115432
0.0052034836 0.014684056 0.009995194 -0.029314738 -0.02897651 -0.06745288 -0.052038603 -0.043725163
0.019661829 0.016968556 -0.021787921 -0.057435747 -0.049625218 0.0330177 -0.06631535 0.05532132
0.027532382 -0.0042701336 0.017160114 0.0700055 0.067054346 0.030543301 0.076124005 0.0028232948
-0.016687877 -0.006780927 0.0528686 -0.024573302 0.0394217 0.05030501 -0.054269217 -0.020811606
-0.054866545 -0.062376175 -0.07177434 0.045328654 -0.046952993 -0.008644947 -0.053772908 -0.004718844
-0.061319407 -0.0019595549 -0.01311344 -0.023978144 0.067541264 0.046782613 -0.062429667 0.009467879
0.009925414 0.088478774 0.050007306 0.07190949 0.062789366 0.0728658 -0.02353889 0.06559492
-0.044050533 0.061457776 -0.046294853 -0.046694364 0.010163778 -0.040053736 -0.015260924 -0.07387928
-0.025425004 -0.0035746484 -0.035492565 -0.07645137 -0.024785563 0.022057898 -0.08669734 0.02221219
-0.017081475 0.057415865 0.048802484 0.017487371 0.029096752 0.047755145 0.0019267908 0.06801834
-0.0048000966 0.023132531 -0.01305107 -0.0917379 -0.0058382275 -0.010900112 0.03535223 0.043342747
-0.021799829 -0.03240635 -0.0022859778 -0.013082851 0.07355953 -0.05605094 0.05862186 0.021705635
-0.0064675426 0.030619174 0.021360714 0.007315215 -0.04270678 0.029502666 0.04646203 0.03960768
-0.06213604 -0.053163018 -0.044308595 0.03264021 -0.0054510944 0.0047354465 -0.03138546 -0.043225136
0.075660616 -0.02256231 0.05566409 0.07009773 0.003194566 0.05940167 -0.018174717 -0.016963204
0.0317572 -0.020484587 -0.04060386 0.05870648 -0.090269744 -0.059962742 -0.07218801 -0.06865291
-0.06271582 -0.029248072 0.08729087 -0.020864734 0.037840497 0.01192436 -0.006155063 0.08595939
0.058234893 0.06093564 0.029857269 -0.047988947 0.016625829 -0.03534199 -0.03056421 0.017827237
0.02788137 -0.084741786 -0.06525995 0.03166029 -0.030020805 -0.11460868 -0.1123062 -0.04801125
-0.010612467 -0.018633572 0.01359956 0.013511552 -9.014006e-06 0.0059077004 0.07977817 -0.035132952
0.026928656 0.042708565 -0.006655031 -0.01246955 -0.042362645 0.0432767 -0.048845407 -0.0068068258
0.04483648 0.025429495 -0.0011441582 -0.057641555 -0.07102538 0.05689528 -0.055774458 -0.04378225
-0.06926618 0.0053638737 -0.04197636 -0.011323127 0.07338072 -0.041711364 0.020106101 -0.044040166
-0.015604569 -0.021611607 0.08187112 0.08065963 0.0101386625 -0.013202972 0.040259637 0.08352347
0.01301581 0.030770235 -0.040015712 0.023873944 0.059226282 0.025035568 0.03120454 0.0003298367
0.007799585 -0.044525664 -0.023882732 0.07330123 0.044785414 0.0321543 -0.06534818 -0.07366524
-0.04922665 0.0019753373 0.04592098 0.042036913 -0.069495454 -0.06492306 0.044396356 -0.011696165
0.033542622 -0.045663953 -0.04701098 0.007893478 -0.06491618 0.0016903299 -0.07708355 0.008790996
0.01739601 -0.04171381 0.05721532 -0.0026502756 0.05117041 0.0021950072 0.0041200216 0.026670046
0.049283758 -0.0133104585 0.03601642 0.006578765 0.04292071 -0.056196567 9.924268e-05 0.009908939

conv2.bias f4 [32]
00000000: d9b1 b8bc f778 063c 2d23 4dbd cbc1 663b
00000010: 46c2 953c 01b4 9ebd 2265 733c 92cb 92bd
00000020: afbe 7cbd bedc 8e3d ab94 683d 4232 f03a
00000030: 45a0 e03c fae8 2dbc 6210 d6bc b87b b93d
00000040: bf29 8cbd bf1e edbc 5bfd 5cbd 40d5 40bd
00000050: f241 5c3c 9180 813b 9983 f2bc e1b1 2abc
00000060: 3b4b a1bc bca8 6c3d 137e 00bd 32b9 61bc
00000070: 3360 923b 06a3 bcbb e45e 283d 15e6 ea3c
-0.022545742 0.008207551 -0.050082374 0.0035210724 0.018281113 -0.07749177 0.014855655 -0.07167734
-0.061705288 0.06975697 0.056782406 0.0018325525 0.027420172 -0.010614628 -0.026130859 0.090568006
-0.068439 -0.028945325 -0.053952556 -0.04707837 0.013443457 0.003952094 -0.029603766 -0.010418386
-0.019689193 0.057778105 -0.031370234 -0.013777064 0.0044670342 -0.0057567386 0.04110612 0.028674165

conv3.weight f4 [64, 32, 5, 5]
00000000: dc5b b0bc c7e3 87bc 4922 30bc 2a49 1ebd
00000010: f395 26bc eaa1 c63b 709e 42bd 5a70 ef3c
00000020: fc4e 16bd d9d2 8d3b baf6 db3c 033e 17bb
00000030: f712 d93c 4d48 893c 5cf8 313d 411b d5bc
00000040: ab1d 5c3c 9b54 563c d67f cc3c f535 26bc
00000050: a163 073d bbce 023d f9a5 16bc f9e6 cbba
00000060: 2d4b b3bc 3309 9bbc 6d72 933c 590e 413c
00000070: b361 b53c 7674 cbbb bb7e a4bc f486 a53c
00000080: 1bff e3bc d6b4 09bc 2485 e0bc cc8e abbc
00000090: 83ea 9b3c 3d6a b13c a217 f03c 0816 123d
000000a0: f12d 1cba 7f05 13bd 4a36 373c 0d81 413d
000000b0: 4f75 1e3d 9dfb c93c b6ad 253c 2bb7 193d
000000c0: 4f7f 9cbb 2e1b 073d b113 ff3b b981 b3bc
000000d0: 511b 53ba 9ec7 d9bc 2503 3d3d a68f 293d
000000e0: cdd1 0dbd b583 86bc 4914 18bc 4fd4 37bc
000000f0: b847 b1bb b5ca 1d3c 4d83 ebbb ade8 b7bb
00000100: 15cf 65bc 9795 353c 647d be3c 54d9 24bd
00000110: c4ca c5bc 4499 2abc a238 86ba 19fd a63c
00000120: 4c70 233d 04df 1fbd 8f12 e03c 5f89 41bd
00000130: 503d 5abd 717c 8dbc f371 39bd 3258 553c
00000140: 7045 853c 4bb8 5bbb 133b 023d 10cf 65bc
00000150: 1bd0 bb3b 8f79 f73b efc9 17bd e122 d53c
00000160: 1c88 f83b 5a73 023d 7416 f1bb b1e2 f5bc
00000170: 2904 7a3a 6bf7 f4bc 6778 1a3d 5b1c e03b
00000180: cf4e fabc 4c0a 0ebd 6d2a 84bc 0743 e1bc
00000190: 9d11 be3c a9de ffbb 53eb 3c3c 51d1 ffbb
000001a0: a9d4 41bc 84a4 273d f21b 6b3c 362a a83c
000001b0: ad10 f3bb ec43 933c a65c 0f3d 4b59 533d
000001c0: 2acb 2a3b 33ea 113c ca39 e9bc 9a02 953b
000001d0: d5cb e53c 6463 163d 13ee f13c d030 be3c
000001e0: da3c 94bb 3ba6 8bb9 5554 2e3c b309 97bc
000001f0: d6db 7fbc a495 67bd 0b5a 42bc ff99 22bc
00000200: de69 823c 5102 483d 7398 32bd 3c52 b6bc
00000210: da4d c1bb ba42 d73c 07fe c23c fd5f 72bd
00000220: 66a3 18bd f666 eb3c 4fad bdbc 4847 8d3c
00000230: 03f7 46bc 0147 08bd 7c30 80bc 8574 583c
00000240: c326 8e3c b430 d8bc 52ee ac3b ab53 96bc
00000250: fc07 023d 83da 0abd 3b57 9e3c 62f4 a03c
00000260: 3818 b03c e413 43bc 446d 94bc 3b18 d53c
00000270: e5ae 893c 7578 203c 279a 91bb 74e8 cd3b
00000280: 9703 9dbb 87e6 873c 45a7 dcbb 1e1b bc3b
00000290: ec81 71bd 46ae e8bc d2ba e2bc 2b61 a3ba
000002a0: 5c47 2abc 2f2a 96bc 48e4 25bd 7c1f b93c
000002b0: b2eb 83bc 6c7a f13b e879 bcbc 6237 8f3b
000002c0: 0b72 39bd e578 0e3d 32c9 163d c3f7 12bd
000002d0: 183c 9d3c d6df 4bbc de0e 713b 950f bc3c
000002e0: c302 ab3b 13a8 84bb f39f 5c3c f803 f6bb
000002f0: 0fab 4a3d 3e2a e83c 1fea 9eb9 13db cbba
00000300: 9d87 e1bc 96dd d93c aaec 853c 4d6a 2ebd
00000310: 55a6 f33a baba 15bd 76a4 083d 06b1 e5bb
00000320: 8f0d 983c 91cb e33c e709 0c3d 8960 aebb
00000330: 0251 0abc bc53 81bb f91d 063b 57f2 213d
00000340: 20c4 243a 47f9 353c 5824 883b a38e 1c3d
00000350: cce1 343c 5048 29bd a3a9 0cbd 0cd9 a13c
00000360: bd28 7f3c da78 53bd 9485 bcba 0faf f0bb
00000370: e164 4b3d 68f4 023d 8dc9 60bb 1267 fabb
00000380: f271 693c d204 0b3d 1454 8e3c 1d7d 86bb
00000390: a248 84bb 9be9 283d 65d1 dc3c c556 cb3c
000003a0: 1edb b0bc 5950 39bb 1e59 783c 2663 81bd
000003b0: 079e d43c 5f9b acba c53a 89bc 29d5 6cbc
000003c0: 7cb7 e13c 6f27 f9bc 18d9 0d3c 18b8 99ba
000003d0: 7a4d 153d f890 0c3b d724 e43c 17d9 043b
000003e0: 54e0 e2bb 0fef 8039 4f38 c83c d5e4 473d
000003f0: e435 f23c c4be 90bc ab11 373d 19eb ac3c
-0.021528177 -0.016588105 -0.010750362 -0.038643993 -0.010167587 0.006061782 -0.04751438 0.029228378
-0.03669642 0.0043281135 0.026851047 -0.0023077733 0.026498301 0.016758109 0.043449745 -0.026013972
0.013434808 0.013081695 0.0249633 -0.0101447 0.033053998 0.031935435 -0.009194844 -0.0015556506
-0.021886433 -0.018925285 0.017998898 0.011783206 0.022141313 -0.0062089516 -0.020079961 0.020205952
-0.027831605 -0.008404931 -0.027407236 -0.020942114 0.019032722 0.021657104 0.029308144 0.035665542
-0.00059577735 -0.035893913 0.011182377 0.047242213 0.038686093 0.024656111 0.010112217 0.0375282
-0.0047759186 0.032984905 0.00778433 -0.021912443 -0.00080530817 -0.026584443 0.046145577 0.04139676
-0.03462391 -0.016420225 -0.00928218 -0.011220052 -0.005410161 0.009630849 -0.007187283 -0.005612454
-0.014026423 0.011083028 0.02325315 -0.040246323 -0.024144538 -0.010412518 -0.0010240267 0.020384358
0.039902017 -0.039031044 0.0273526 -0.047250148 -0.05328113 -0.017271252 -0.045274686 0.013021516
0.016268462 -0.0033526595 0.03179462 -0.014026418 0.005731595 0.0075523327 -0.037057813 0.026017608
0.007584585 0.03184829 -0.007357413 -0.030015321 0.0009537363 -0.029903134 0.03771248 0.0068393177
-0.030555157 -0.03467779 -0.016133511 -0.027497781 0.023201758 -0.0078085256 0.011530715 -0.007806935
-0.011830487 0.04092838 0.014349924 0.02052794 -0.0074177594 0.017976724 0.035000466 0.05159883
0.0026061037 0.008905935 -0.028469939 0.0045474293 0.028051296 0.03671588 0.029532468 0.023216635
-0.0045238556 -0.00026635997 0.0106402235 -0.018437242 -0.015616378 -0.056539193 -0.011862288 -0.009924411
0.015919622 0.048830334 -0.04360242 -0.02225601 -0.005899173 0.026276935 0.02380277 -0.059173573
-0.037265204 0.028735619 -0.023153929 0.017245904 -0.012143853 -0.03327084 -0.01564812 0.013211374
0.017352467 -0.026390411 0.0052774334 -0.018350443 0.031745896 -0.033899795 0.019328704 0.01964778
0.021495923 -0.011906598 -0.018118508 0.02601253 0.016807029 0.009794344 -0.004443425 0.006283814
-0.0047916877 0.016589416 -0.0067338073 0.0057405373 -0.058961794 -0.028403413 -0.027676973 -0.0012464871
-0.01039299 -0.018330662 -0.04050091 0.02259802 -0.0161036 0.00736933 -0.023007348 0.004370616
-0.045274775 0.034783263 0.03681297 -0.035880815 0.019193694 -0.012443503 0.0036782543 0.022956649
0.005218835 -0.0040483563 0.013465869 -0.0075077973 0.04947954 0.028340455 -0.00030310542 -0.001555296
-0.027530486 0.026594918 0.016348202 -0.042581845 0.0018589 -0.03655503 0.033359967 -0.007009628
0.018561153 0.027807029 0.03418913 -0.0053215665 -0.008442165 -0.0039467495 0.0020464642 0.039537754
0.00062853284 0.011106796 0.004154723 0.038221966 0.011040162 -0.04132873 -0.034341466 0.019756816
0.015573678 -0.051628925 -0.0014383071 -0.0073450874 0.049656752 0.031971365 -0.003429982 -0.0076416815
0.014248358 0.033940144 0.017374076 -0.00410427 -0.004036979 0.04123841 0.026955316 0.024821648
-0.021588858 -0.002827665 0.015157966 -0.06317739 0.02595426 -0.0013168863 -0.016751656 -0.014455118
0.027553312 -0.030414311 0.008657716 -0.0011727838 0.03645084 0.0021448713 0.027849598 0.0020270997
-0.0069237147 0.00024592175 0.024440913 0.048802216 0.029566713 -0.01766909 0.044694584 0.021108197

conv3.bias f4 [64]
00000000: 5f16 80b7 797e 64bc 339e 183d e276 253d
00000010: 0523 05bb d630 713d a4c5 13bd 1eae a8bc
00000020: a71c 1f3d 3d75 babc 648f faba 097a 0fbb
00000030: dcc5 8b3c d4b6 6c3d 7888 ee3c a029 38bc
00000040: bf17 71bc bbe7 f33b 32d9 efbb 5048 483c
00000050: dc9a aabc 2445 183d 07a9 28bd 671a 83bb
00000060: 8583 9e3c 4dbf eb3c b1ec dd3c b08b 8dbc
00000070: d007 6cbd 3113 7d3d bbfa eebc ccc9 de3c
00000080: ad4e 443c ae37 fa3b 6227 f6bc 82b9 483d
00000090: e8be ce3b eb91 3abd f3d7 4f3d 4aa3 8c3b
000000a0: 44fa ff3c 5890 09bb fb06 373c 68dc 31bc
000000b0: d0ec 8cbb 7f0d fd3b 5071 a73c 1443 43bd
000000c0: 4fd1 51bc f88c 45bd 8fdb cb3c 9066 d1ba
000000d0: 7bb6 a43a eec7 993c 3c95 f73c 6740 003d
000000e0: 4570 b9bc da31 b8bc 1e6e 8d3d 71bf ec3b
000000f0: 6fc0 c63d aae6 15ba 3c1a 0d3d bb65 febc
-1.5269206e-05 -0.013946169 0.037260246 0.04039658 -0.0020315063 0.058884464 -0.036077157 -0.020590838
0.038845684 -0.022760982 -0.001911622 -0.0021892807 0.01706212 0.057791546 0.029117808 -0.011240393
-0.014715134 0.007443396 -0.007319593 0.012224272 -0.020825796 0.037175313 -0.041176822 -0.00400095
0.019349823 0.028777743 0.027090402 -0.017278522 -0.057624638 0.06178588 -0.029172292 0.027195834
0.011981648 0.007636032 -0.030048076 0.04900504 0.006309379 -0.045549314 0.050743055 0.0042919265
0.031247266 -0.0020990577 0.011171098 -0.010855772 -0.004300691 0.007722556 0.020439774 -0.047671393
-0.012806251 -0.04823014 0.024884967 -0.0015976 0.001256659 0.018772092 0.030222528 0.03131142
-0.022636542 -0.022484709 0.06905769 0.00722497 0.097046725 -0.00057182705 0.034448847 -0.031054368

fc1.weight f4 [128, 256]
00000000: 9540 aebc 01ee c03c f380 4c3b a5aa afbc
00000010: af19 633c d38d 12bc 92ca a03c 7e1d 1d3b
00000020: 0f03 88bd 7080 eebc 0e34 013d 3e37 483c
00000030: 487d 8e3a 9f8d 48bd 1dcb b9bc e163 893b
00000040: 03d0 c73c 4384 703c ef93 15bd 50cb e5bc
00000050: 66a3 c23d a680 b03d e3fa f23c 785b 9abc
00000060: 7348 313d af1a 89bc 2fbb 8ebc 9707 91bd
00000070: e916 c8bc 8d53 653d 92d8 0c3d fcf2 d43c
00000080: 3e1d 483a 4674 1abd 2bd3 5f3d d1c3 fd3c
00000090: ab09 67bd 708c c7bd 97db b73c 855c 20bd
000000a0: 2f2a b8bc 48ec 3a3d 5191 04bd 3fd5 12bc
000000b0: 39bc 0ebd 2587 1abd 6f72 7ebd d791 3b3d
000000c0: 4e76 f73c b499 883d 7d40 783c d814 633d
000000d0: 0586 ecbb 1df0 133d 2f1e 9c3d 919d 723c
000000e0: 4943 0abc e437 1f3d 718a 503d 2534 7f3d
000000f0: 3b15 41bd 609b 4abd 5d3c 0c3c 9d90 64bd
00000100: 4c40 5a3d 0d9d a43b e062 1fbc 8262 e43c
00000110: 574c 473b 7532 85bd d3c5 7d3c 3454 37bd
00000120: 3da0 02bd b10f 483b 319d 573c 531a a03c
00000130: dc39 3ebd f75b 89bc f6a2 463d aec5 2cbd
00000140: 365c b53d 0935 fa3c c64a 19bc cb98 b53d
00000150: 47a2 4ebc 5c69 c23c d25d 083d d103 a63d
00000160: 30b8 8cbd 3ac2 66bc d189 2abd edab 49bc
00000170: 3c6f 4d3d fe72 7ebc b439 aa3d 79cc 1fbb
00000180: abf2 a13d 1411 8e3c 725a 0a3c 9f04 5dbd
00000190: e161 46bd 92b0 193d 2c47 283d 6f31 b6bb
000001a0: 6b4c 61bd ddc4 ed3c b10c 913c 430b c9bb
000001b0: e5a5 2fbd 30b8 073d 16d2 f83c 624e f73c
000001c0: 468b 773a ce40 30bd 4873 063b 439a e8bc
000001d0: 1018 6b3d 2ecc a6bc d640 8f3d d7a2 f8bc
000001e0: 6018 683b 8b37 623c 4048 353c 6416 213c
000001f0: fdd9 50bc 7c16 393d 639c 453d ddf1 143d
00000200: 684e 88bc 94c8 333d 149b 6a3a 3f74 c73c
00000210: 891e 7abd e469 b43c c929 2d3d b3bc 283c
00000220: 8885 f6bc 2da0 073d ead6 ff3b 0738 1cbd
00000230: a187 863d d98c 763d 7c2b 98bc 3f58 203d
00000240: 514c 1fbd 271a b2bd 5de4 0d3d 23ca c4bc
00000250: 91c0 a1bd b2c1 47bc fa26 a1bd dd21 1fbd
00000260: 5507 4e3b 605a be3c ef2b 7bbc 52be acbc
00000270: c89f 2dbd 9ec4 33bc 200c 393d 720b 313d
00000280: d52d 2f3d 9ba0 023d ce53 40bd 715a 51bc
00000290: ded6 91bd 92ee 3c3d 49cf 9a3c d192 e5bc
000002a0: 750e a2bd 4cbc adbd f94d a6bd ff1c 9bbd
000002b0: 1d7f ddbc d794 fcbc 3a2f 80bd eec8 0fbd
000002c0: 750a c63c 7283 7e3d 13e2 b5ba ee1e 41bc
000002d0: 7627 613d 7053 93bd c579 dd3b bf5d 9ebd
000002e0: d8f0 02bd 4b18 ccbd 4beb 86bd d08e e0bc
000002f0: 51b0 12bd 541b 95bd c32d 443c f16b e53c
00000300: fc6d d9bc 507d 003d fa13 56bc b963 f2bc
00000310: 9c2f 77bc 29fb d3bc fd2d 11bc 4ed8 35bc
00000320: 6ae6 173c 90ec bbbd 7ec8 cd3b 26db 67bd
00000330: c7eb ca3c b707 d93c 4502 a73b fb43 c3bc
00000340: 37f0 87bd 8787 503d ad51 733d 587d 34bd
00000350: 10d1 df39 75e5 aebd 1d98 2c3d 74af 35bd
00000360: 2750 14bc 4a7c bbbd 60e7 893c 3a72 1abb
00000370: d46b f33c cbfd 83bc f99a 773d aaee a8bb
00000380: 413b 7cbb 84ed 2f3d 7801 923d 1b41 17bc
00000390: 69f3 253d d507 2fbd 373b 343d 0795 4c3d
000003a0: 0eb1 e0bb c7b7 6abc 4700 1c3c 0dd0 623d
000003b0: dde8 203d c715 0fbc 1910 e73c 9369 97bc
000003c0: c8f7 093d fe57 b93c 1ef5 633d 0129 df3c
000003d0: a7b8 b2bc 4345 5f3d 80b8 d1bb 8c32 4fbd
000003e0: 9b13 8ebd 50a6 d8bc 0562 48bd 1dcd 203b
000003f0: c35b 943d b35f 393d 15d9 9abc cf9a 7b3d
-0.02127103 0.02355099 0.003120479 -0.021443674 0.013861104 -0.008944946 0.019627843 0.0023973878
-0.066412084 -0.029113978 0.031543784 0.012220202 0.0010871077 -0.048963185 -0.02267986 0.0041928147
0.02439118 0.014679971 -0.036518034 -0.028051049 0.09503822 0.08618288 0.029660648 -0.018842444
0.043281984 -0.016736357 -0.01742324 -0.07081526 -0.024424987 0.055987883 0.034386225 0.02599477
0.0007633752 -0.037708543 0.054644745 0.030977162 -0.056405704 -0.09743583 0.022443576 -0.039150734
-0.022481052 0.04563549 -0.032365147 -0.008961975 -0.034847472 -0.03772654 -0.06212085 0.04579338
0.03020778 0.066699415 0.015152094 0.0554398 -0.007218125 0.03611766 0.076229446 0.014808075
-0.008438894 0.03887166 0.050913278 0.06230559 -0.047139388 -0.049464583 0.008559314 -0.055801976
0.053283975 0.0050236047 -0.0097281635 0.027879003 0.0030410492 -0.065037645 0.0154890595 -0.044758037
-0.031891096 0.003052693 0.013160036 0.019543802 -0.046441898 -0.016767485 0.048495255 -0.04218071
0.088554785 0.030542867 -0.009356206 0.088670336 -0.012611932 0.02373188 0.0332926 0.08106197
-0.068710685 -0.014084393 -0.04163534 -0.012309057 0.05015491 -0.015530346 0.08311787 -0.002438335
0.07907613 0.017342128 0.008444415 -0.053959485 -0.04843319 0.037521906 0.0410835 -0.005560092
-0.05500452 0.029024536 0.017706247 -0.0061353757 -0.04288282 0.03313464 0.030373614 0.030188743
0.00094430556 -0.043030553 0.002051549 -0.02839387 0.057395995 -0.020361032 0.06994788 -0.030351086
0.003541492 0.013807188 0.011064589 0.0098319985 -0.012747285 0.04518746 0.048244845 0.03636347
-0.01663895 0.043892458 0.00089495 0.024347423 -0.061064277 0.022023149 0.042276178 0.010298896
-0.03009297 0.03311174 0.007807602 -0.03813937 0.06568838 0.060192917 -0.018575422 0.039146658
-0.03889114 -0.086963944 0.034641612 -0.024022168 -0.07898057 -0.012192177 -0.07868762 -0.038850654
0.0031437476 0.023236454 -0.015330299 -0.021086846 -0.042388707 -0.01097217 0.04517758 0.043223806
0.04276832 0.031891447 -0.046954922 -0.012777911 -0.07121061 0.046125956 0.01889767 -0.02802411
-0.07912914 -0.084831804 -0.08120341 -0.0757389 -0.027038151 -0.030832691 -0.06259008 -0.03510373
0.024174908 0.062137075 -0.001387658 -0.011787159 0.054969274 -0.07193649 0.006758901 -0.077327244
-0.031967968 -0.09965571 -0.06587847 -0.027411848 -0.03581268 -0.07280603 0.011973801 0.028005572
-0.026541702 0.031369507 -0.013066286 -0.029588567 -0.015087035 -0.025876598 -0.008861062 -0.011098934
0.009271244 -0.0917598 0.006280004 -0.05660548 0.02477063 0.026492937 0.005096706 -0.023836127
-0.06637614 0.0509105 0.059404064 -0.04406485 0.00042689638 -0.08539859 0.042137254 -0.04435678
-0.009052313 -0.09154566 0.016833961 -0.002356662 0.029714502 -0.016112229 0.060450528 -0.005155404
-0.0038487467 0.042951122 0.071291864 -0.009231831 0.040515337 -0.04273208 0.044001784 0.04994681
-0.006857044 -0.0143260425 0.0095215505 0.055374194 0.039284576 -0.0087332195 0.028205918 -0.018482959
0.03368357 0.022624966 0.055653684 0.027241232 -0.021816565 0.054509412 -0.006400168 -0.050585315
-0.06937333 -0.026446491 -0.048921604 0.002453632 0.07244065 0.04525728 -0.01890234 0.061426934

fc1.bias f4 [128]
00000000: c8fd a63d 3c7e 88bd 2b4b 7d3d 5561 333d
00000010: 6a2b b6bc 00cd 11bc b4b3 db3d 35a2 5abc
00000020: fc42 20bd 7393 15bd 36a6 2ebd dfe1 f53c
00000030: d50c 233d 9f74 ae3b b1f2 5f3c a9b2 0bbd
00000040: 8b68 b43d 443a e93d 283a 093d c072 acbc
00000050: 6916 9e3d 118e 13bd 18cd 48bc 0dfe 8cbd
00000060: aa00 3b3d 1973 923d e460 43bd 594f 95bd
00000070: e5f0 d6b8 49d0 013e cfb1 1fbd 51b1 5e3d
00000080: c7a0 b53d 8db5 4dbd 3167 bfbc 144a c93b
00000090: 672e 46bd 8df7 013c 5be9 89bc a71b 02bd
000000a0: eeef b53d 5a84 433d c23a da3d b57f 133d
000000b0: 6889 363b 3dd6 223d ba7e 083e 4761 7d3c
000000c0: 8610 d8bc e5a6 8d3d 744e a5ba 7c2c f2bc
000000d0: 01e6 13bc 0cb4 893c 8bcc 50bc 2b83 9abc
000000e0: 0ba7 0b3c 12ad 3dbc 7c2c e03c e05e 723d
000000f0: 219a 91bc b1fd b83a 5032 acbc 8764 a03b
00000100: 0f85 a7bd d376 1a3d a653 b4bd 07e6 08bd
00000110: 885e fe3c 9069 e43d 0fc0 d33b fe52 ba3c
00000120: 5d21 1b3c 3bfb 693d ae69 f9bc 9e70 8b3c
00000130: 8f12 543d 00c9 8fbd e2e6 c63c 5941 ea3d
00000140: a385 a4bc 3b8d 81bc c201 743c e576 77bd
00000150: 48a5 543d 8cad 793d 531a 02bd 79f0 18bd
00000160: b4bc 573d 7008 8a3c 118b 0b3e 5cd5 c93c
00000170: 8d88 10bd 2949 84bd fd3c 943c 7bbd 3ebc
00000180: 6193 02bb 4d59 debb 815c b3bc 5e97 a23d
00000190: df16 b03d f906 b13d 1dc3 6a39 a4ea 793d
000001a0: 8173 afbb 57ef 7b3c be47 6cbc e704 983b
000001b0: 1ce1 c93d 229a 14bd 8122 0a3e 742f 503b
000001c0: 61ad 213d 3ed5 853a 25b6 ae3a 4654 083d
000001d0: 80f2 9abc 621d a43d 626c 0e3c 3a88 2b3d
000001e0: 4edc 9d3d 5d8f d43c bf64 763c f485 923d
000001f0: 3511 053d 49f5 15bd 2f9f 66bd 0287 abbd
0.08153874 -0.06664702 0.061839264 0.043793995 -0.022237498 -0.008898973 0.10727635 -0.013344337
-0.03912638 -0.03651757 -0.04263898 0.03001493 0.03980716 0.005323961 0.013668702 -0.03410593
0.088090025 0.113880664 0.033502728 -0.02105081 0.07719118 -0.036024157 -0.012255929 -0.06884394
0.04565493 0.071508594 -0.047699824 -0.07290525 -0.00010249185 0.1267711 -0.03898793 0.05436832
0.088685565 -0.05022197 -0.023364635 0.006142864 -0.048384096 0.007932556 -0.016834905 -0.031764653
0.088836536 0.047733642 0.106557384 0.036010463 0.0027852897 0.039755095 0.13329592 0.015465087
-0.026375066 0.06916598 -0.0012611882 -0.029562227 -0.009027005 0.016809486 -0.012744079 -0.018861374
0.008523713 -0.011576908 0.027364962 0.05917251 -0.01777369 0.0014113692 -0.021020085 0.0048947963
-0.08179676 0.037710976 -0.08805017 -0.033422496 0.031050935 0.11152947 0.006462104 0.022744652
0.009468404 0.057124358 -0.0304459 0.017021473 0.05177551 -0.070207596 0.024280015 0.11438245
-0.020083254 -0.015814414 0.014892997 -0.06041612 0.051915437 0.060956523 -0.031763386 -0.037338708
0.052670196 0.016849726 0.13627268 0.02463787 -0.035286475 -0.06459267 0.018095488 -0.011641855
-0.001992427 -0.006785548 -0.021894695 0.07939027 0.08598112 0.08643908 0.00022388664 0.061014786
-0.0053543453 0.015376887 -0.014421402 0.0046392563 0.09857389 -0.036279805 0.13489725 0.0031766566
0.039471988 0.0010210646 0.001332943 0.033283494 -0.018914461 0.08013417 0.008692833 0.041877963
0.077080354 0.025947267 0.015038668 0.07154456 0.032487113 -0.036610875 -0.056304153 -0.0837536

fc2.weight f4 [64, 128]
00000000: 5e50 163d fcaa e8bc de91 5abd 2b61 0fbd
00000010: 9f9a 623d 9b4b 8a3b 3cd2 03bd edde a33d
00000020: 65db 86bd e3d7 923d 9a2d 473d 12bb cb3b
00000030: 961a 1b3d cdf1 02bd 33ab 5cbb 1c03 853d
00000040: 0ab9 923c 6a4c 653c a71d 2abb 8f42 443c
00000050: d82c ee3b d4fe c03c a105 c43d e72a 573d
00000060: 9336 50bd 10a8 8ebd 47eb 7ebd 4c1a eabb
00000070: 2f47 843d 003b c4bb d50c e8bc 2841 ae3d
00000080: 1e97 1e3d 6d71 9a3d fd12 98bd d685 6a3d
00000090: 55d7 023d e7b6 caba 2539 81bd b398 e0ba
000000a0: d72c 083e cf3e 03be 75e6 d7bc ab72 22bd
000000b0: 5de3 043c 52f5 c83d 1f7e 103d 3aff cc3d
000000c0: 79d1 963c a0f1 77bc d2d7 ef3c 300e 893d
000000d0: c930 583d eb1c 763c 4319 2f3d a405 5f3d
000000e0: 75f5 093d 51a1 a3bd 2cfa f8ba dbab 0fbd
000000f0: f26f 99bd 6885 a7bc e5e1 963c 437b ab3d
00000100: 85ba 923d 9345 3dbd 79a6 133d 7f39 343d
00000110: 0a8c bd3d 4a1e a9bd 6051 343d 4323 1e3d
00000120: 078e 1bbd 1115 043e c5b5 97bc faae 0c3d
00000130: 8d3b 9abc 002d 193d 67c9 97bb 71d0 ba3b
00000140: edf4 08ba 4439 0a3e c76c 153d db64 903d
00000150: 085e 3b3b 8f77 40bc f65b 1b3d ca7b 853d
00000160: 2c46 8dbd f288 76bd 0711 e4bd 3b9c b63d
00000170: 6053 d2bd 4912 8e3d 8406 ed3b d9f1 80bc
00000180: e575 bd3d 3128 b73d 8030 02bc ee1c a93d
00000190: 1cba 593d f13a eb3a a4cd 743c 998d 873d
000001a0: d2d8 c03d 9b3f 8e3d 1256 853d bad4 e63c
000001b0: b7e3 963d 41bd 51bb 90a7 913c 1fd3 cd3d
000001c0: 614f ff3c 8c74 633d cf78 863d f329 a8bc
000001d0: 36fd 4f3c cb1f 8f3d 5e21 0e3d f065 3bbc
000001e0: ca0b b4bc d6f4 1abc 624c 9dbd 2be2 b03d
000001f0: 5b37 a8bc 99c1 633c c88c 813c 047e 49bd
00000200: 90c4 023d bb7e a8bd 85a8 f1bc d4e7 9b3d
00000210: 8a26 c6bb 945d c03d 9087 583a cc31 04bd
00000220: f773 1bbd e5de 523c d6d7 6ebd ffa9 033e
00000230: 77b4 88bc 7dee debc 9608 d1bc b5b8 cabc
00000240: 442b b83d 2505 36ba 5bfa 4b3d d888 d03c
00000250: 4a8a e8bd d6c9 0c3d 1568 1ebe 0274 973d
00000260: 66c6 a93d 4c21 9a3b e231 9e3d ac8c ad3d
00000270: dfaa 33bc 9c71 943d 33d3 80bd 95b3 b4bd
00000280: 220e d7bd 11d0 493d 5ae9 93bc 2395 ccbd
00000290: 9725 263c b06f a03c b4d8 90bd 71e2 45bd
000002a0: cb93 3f3d 9f94 9b3d ea65 283d 26ba d1bd
000002b0: 131f f7bc 0c7d edbb 8a40 7abd 167c 0b3c
000002c0: 8c94 de3c 07d5 3e3d a6c8 a4bd 49bb a0bd
000002d0: f49c 933d 5976 8d3d b565 573c 26ea 043e
000002e0: d502 dc38 13a7 003e 31b3 0d3e 3627 aabc
000002f0: a5a8 7ebc dffe f3bd d392 2e3d 76bf 223d
00000300: 86c5 eb3d dc98 553d 2227 b7bb 8663 0bbe
00000310: 85bf 22bd 44ad 08bd 7c35 a9bc c27e ecbd
00000320: ccd3 a23d 5418 98bd afe9 e5bd 2ff3 c83c
00000330: c680 f93c 92f0 36bd 0e48 82bd c825 b0bc
00000340: 612a 3a3d 16fa 8fbc 10b2 a7bc ff8b 193b
00000350: 2633 1e3d 8d5c 93bb 49c1 e63b d07d 8dbd
00000360: d507 63bb 4183 5ebd 0958 79bd 0749 ac3d
00000370: 14d7 bdbd 20bf 933d 121e 203d 05e6 84bd
00000380: 3baa ffbc 2a6d 5b3d 5348 63bd a2f9 683c
00000390: 3fa4 41bc 2a14 e6bc 5071 9b3d 77e5 9abd
000003a0: c494 72bc e954 3bbd 2aec 2cbd c2e7 8dbc
000003b0: bf84 8bbc 6d4c e13d f0f4 9a3d f225 83bc
000003c0: 0315 023e 21b1 b4bd 89fd 943d cd83 87bc
000003d0: b336 e0bd d4f2 a5bd 272d b03d 635f 523d
000003e0: e064 bdba 4ddd 96bd 049f a5bd 2a3d 8abd
000003f0: 491d 8b3d d662 34bd 4cd4 49bd 560c 2ebd
0.036697738 -0.028401844 -0.053361766 -0.035004776 0.05532324 0.0042204387 -0.032182917 0.08001504
-0.06584815 0.071700834 0.048627473 0.006217369 0.03786715 -0.03196888 -0.0033671379 0.06494734
0.0179105 0.013995269 -0.0025957616 0.011978759 0.0072685294 0.023559012 0.09571386 0.05253115
-0.050833296 -0.06965649 -0.062236097 -0.007144248 0.0645889 -0.0059884787 -0.028326431 0.08508521
0.038718335 0.075411655 -0.07425497 0.057256542 0.031943638 -0.0015465886 -0.063097276 -0.0017135352
0.13298355 -0.12816928 -0.026355008 -0.039660137 0.008110848 0.09812416 0.03527653 0.10009618
0.018410431 -0.0151332915 0.029277716 0.06692159 0.0527809 0.015021543 0.0427487 0.05444874
0.03368135 -0.07989753 -0.0018995455 -0.035076004 -0.07492055 -0.020449355 0.018418262 0.0837312
0.07164482 -0.04620893 0.036047433 0.044000145 0.09255226 -0.0825773 0.044022918 0.038607847
-0.037977245 0.12898661 -0.018519292 0.03434656 -0.018827224 0.03739643 -0.0046321633 0.0057011177
-0.0005224485 0.13498408 0.03648069 0.07050487 0.0028589983 -0.011747255 0.037929498 0.065177515
-0.0689815 -0.060189195 -0.1113606 0.08916517 -0.10269809 0.06937081 0.0072334427 -0.015740322
0.09251002 0.08943213 -0.007946134 0.08257471 0.053156003 0.0017946643 0.014941607 0.066188045
0.09416355 0.069457255 0.06510557 0.028177608 0.07367652 -0.0032003673 0.017780095 0.10050034
0.03116578 0.05553107 0.06566011 -0.020527815 0.012694648 0.06988486 0.03469979 -0.011437878
-0.021978278 -0.0094577875 -0.076805845 0.08636888 -0.020534208 0.013901138 0.0158142 -0.049192443
0.031925738 -0.08227297 -0.029499302 0.07612577 -0.0060470747 0.093928486 0.00082599465 -0.032274053
-0.03795239 0.012870525 -0.058311306 0.12857817 -0.016687615 -0.02721333 -0.02551679 -0.024746278
0.08992627 -0.00069435156 0.049799304 0.025455877 -0.113545015 0.034372173 -0.15469392 0.073951736
0.082897946 0.0047036763 0.07724358 0.08474097 -0.010966032 0.07248232 -0.06290283 -0.08823315
-0.105007425 0.049270693 -0.018055607 -0.09989383 0.010140798 0.019584507 -0.07072583 -0.048311654
0.046771806 0.075967066 0.041112818 -0.10240583 -0.030166185 -0.0072475728 -0.061096705 0.008513471
0.027170442 0.046589877 -0.08046083 -0.07848222 0.07207671 0.06907339 0.013146807 0.12979946
0.00010490945 0.12563734 0.13837887 -0.02077065 -0.015543138 -0.11913847 0.04262049 0.039733373
0.11512284 0.05214773 -0.005589382 -0.13612184 -0.03973343 -0.033368364 -0.020655386 -0.11547615
0.07950553 -0.07426515 -0.11226212 0.024530021 0.030456912 -0.04466302 -0.063613996 -0.02150239
0.045450572 -0.017575305 -0.020470649 0.0023429391 0.038622998 -0.004497117 0.0070420844 -0.069087625
-0.003464212 -0.054324392 -0.060874972 0.08412366 -0.092695385 0.072141886 0.039091177 -0.06489185
-0.031209102 0.053570904 -0.055488896 0.014219673 -0.0118189445 -0.028085787 0.07589972 -0.07563298
-0.014805976 -0.045735274 -0.04221741 -0.017322425 -0.017031072 0.11000905 0.07566249 -0.016009305
0.12703328 -0.08822847 0.072749205 -0.01654234 -0.10947933 -0.081029564 0.08602362 0.0513605
-0.0014449619 -0.073664285 -0.080869704 -0.06749947 0.06792695 -0.04403957 -0.049274728 -0.042492233

fc2.bias f4 [64]
00000000: d068 f33c 592b e63d 80c5 0b38 8475 9ebb
00000010: 6636 7cbd 05c0 3c3c 48fb ce3c 09f2 5d3d
00000020: baba 133e 6a0c 133d cfe9 09bd 48b1 0e3e
00000030: 5711 04be f973 843d 3029 883d 30d1 92bd
00000040: 867e bb3d 8eeb 8d3d e2e6 03be 4297 babd
00000050: e73c 033d 9b29 0c3d 3f1f 043e 3070 f13d
00000060: 3fee 1a3e f60d ac3d e5c4 193d 60f3 fd3d
00000070: 7576 e93d 402d 3c3c 4b26 acbc 784e 573d
00000080: a6c5 d23d 179e 1b3d 8c57 99bd a25e 74bd
00000090: 3b32 a1bd 7e11 8d3d 5c03 0fba d410 03bc
000000a0: e83f 1e3d 26ea f0bd aba2 e03d 4ad9 0abd
000000b0: 317f 0d3d 5e50 0c3d be4e 96bd b448 d83d
000000c0: d655 febc 639e 993d 494e e23d de0d 17bd
000000d0: 60a9 afbd 99ed 51bb 8875 8b3b 3b28 99bb
000000e0: 4c87 453d 1e35 c73c b125 d2bd 6aba 87bd
000000f0: a108 e6bb e9d1 0a3e 2f20 7ebd 5880 ac3d
0.029713064 0.11238737 3.332412e-05 -0.0048357863 -0.061575316 0.01152039 0.025266305 0.0541859
0.144267 0.03590051 -0.033670243 0.13934815 -0.1289724 0.064674325 0.06648481 -0.071688056
0.09154992 0.06929694 -0.12881044 -0.091108814 0.032040503 0.034219366 0.12902544 0.11788976
0.15129946 0.084011 0.03754129 0.12399936 0.11399547 0.011485398 -0.021014353 0.052565068
0.10291605 0.037992563 -0.07487401 -0.05966056 -0.07870909 0.06888102 -0.00054555177 -0.007999618
0.038635164 -0.1176341 0.109685265 -0.03389863 0.034545127 0.03425633 -0.07339238 0.10560742
-0.03104679 0.07500913 0.11050088 -0.03687846 -0.085772276 -0.0032032488 0.004255954 -0.0046739853
0.048224732 0.02431732 -0.10261095 -0.066273525 -0.0070200716 0.13556637 -0.06204241 0.08422917

fc3.weight f4 [5, 64]
00000000: 8f57 babd 88bf 9c3d 969d eebd ba90 90bd
00000010: c777 35bd cdf9 cd3d c181 e1bd c042 15be
00000020: 66d4 693d bd09 743d 987b 14be 405d 9f3d
00000030: 657b 82ba a010 2a3d ccab 03be 0730 053c
00000040: 1538 193c 512c 34bd 0eae 093e 80e8 99bd
00000050: dc22 f8bd 6e4d 31bd 4ff8 03bc c532 d23d
00000060: 2377 a03d d5b0 1b3e da6c 00be 27b5 963c
00000070: b2ef fb3c 0db7 f4bd 0b15 a1bd 558f 9d3d
00000080: 160f 15be c594 c7bd 5eda b3bd 73b1 22bd
00000090: 1c43 20bd 0365 37bd 21de 15bd d2ce b33d
000000a0: bfaa 8d3d 62ca 7eba 8d7e d0bd a014 be3d
000000b0: 2e46 013e ea8d 26bb 5ed3 153e 762c c13c
000000c0: 36d0 16be c845 d23c 074b 62bd 34f9 c93d
000000d0: f3e8 d03d 2f13 35bd 4df5 b3bc cabe 81be
000000e0: e6dd 55be 8670 2ebe 067b 48be 793e adbd
000000f0: d4f0 9fbd 74cb 89bd a375 93bc 870b b83d
00000100: 60b0 1c3e 8ff6 07bd 61ce a63d 1572 a0bb
00000110: 2908 ba3c 3d69 14bd cdf6 aabd 3355 c2bd
00000120: 77f9 183c 39ba 10be 885d c4bd b34f e23d
00000130: 9162 f4bd b97c 333b 9ce8 1b3e c032 073d
00000140: 5715 903c 7751 10bc 8878 013e f051 703d
00000150: a185 42bd c094 e63c d939 043e aa7e 09be
00000160: e4ba 5abd c2ef a9bd c0c2 553d f667 80bd
00000170: 4761 c73c 4470 a73d f9bf c63d ab60 25be
00000180: b050 a3bc 3653 bfbd 6da9 b9bd 4774 97bd
00000190: 7e19 edbd 9dfd c83d f0f6 ec3d 0b23 76bd
000001a0: 3240 0dbe 39ee 9abd e6a9 08bd 7884 cdbc
000001b0: ac80 ecbc 72bd bdbc 5d80 f2bc d2e8 0dbd
000001c0: 3604 493d bee7 2c3e 813d 88bd 3756 4d3d
000001d0: d163 c13d b724 8c3d 4878 663b 593c 14bd
000001e0: 8f3e 193d a636 593d d751 bebd d632 f5bd
000001f0: 7608 cf3d e2ef f33c d973 b03d f5ac 343d
00000200: 9af8 61bd 1449 18be 11e6 04be 6302 d9bc
00000210: f9b5 0cbd e2ed e6bd ad2d f3bd 1a0a 47bd
00000220: 0c81 1dbe 3c91 6b3d 0470 5d3c c20b fe3d
00000230: caf2 b23d 4e78 5b3d 54fb 86b9 e68a 273d
00000240: 977c 1dbe d161 203e 9f9b 0e3e cbb6 fa3c
00000250: a37f 19be 46df ffbd cd35 87bc 460f aebc
00000260: 2b3d 33be 20e3 a73c 62e0 e4bb ef73 003e
00000270: 279f 50be 5967 063d 13c8 32bd 32c1 f23c
00000280: 256d 323d 9ecd 203e 9cff a63d 3f0f 4d3d
00000290: 358f 61bd 2918 f6bd 8e3e 0dbe d0b1 e3bd
000002a0: 2391 413d 6402 2e3d f8d4 82bd 1e5b 823c
000002b0: 64fd 23bc dcbe ca3d 883a a53d 44fb 48be
000002c0: e52e babd 5d46 debd 9f98 f4bd 1152 30bd
000002d0: c163 383d f58d db3d 3936 c43b 2263 7abd
000002e0: 9b2f 783d b781 ff3d 5531 e3bc b9c6 e83d
000002f0: e4a3 e33d f4d6 2d3b 1eba adbd 3834 98bd
00000300: 07db 00be 1808 0e3d 4e47 1cbd c509 163d
00000310: c0af 1abe 1673 7f3d b6ff f7bd fe92 cc3d
00000320: 3a40 133e 2655 013e a958 cf3d 8092 633d
00000330: d648 7cbd a5d6 343e 8f38 a53d 1f08 a73b
00000340: cfaf 7e3d 02a0 c3bb a6b9 f8bd 68f3 20be
00000350: d123 de3d d94c 40bc 79a8 dc3d cb47 09bd
00000360: 00fa 663d 12b2 a0bd 7e73 083d a2b2 923d
00000370: 42b5 2f3d 58a4 eabc 77ba d03c 0984 e33c
00000380: f853 bcbc ea5d a33d ff3b 02be a816 4fbd
00000390: e16d aa3d dbd7 f43d 6dcd bbbd f020 fbbd
000003a0: c642 83bc f2dd 9ebd 674a 583d 750e 04be
000003b0: 1c99 05be 239c d23d 13af b9bd 973e ef3d
000003c0: 7321 a4bd e5ff 673c c3f0 04bd 454b c23d
000003d0: 6039 07be de8f fdbc ebdd 8c3c 35c8 0fbd
000003e0: c3a8 a43d f3bf 9f3d 65bd f6bd 9940 e4bd
000003f0: 3129 7e3b bc39 083e 1f2e a2bd ba35 893c
-0.09098732 0.07653719 -0.11651151 -0.070588544 -0.04430368 0.10057411 -0.11011077 -0.14576244
0.057087325 0.0595796 -0.14500272 0.07781458 -0.0009954987 0.04151976 -0.12858504 0.008129126
0.00935175 -0.043987576 0.13445303 -0.07515049 -0.12116024 -0.043286733 -0.008054807 0.1026359
0.078352235 0.15204175 -0.12541524 0.018396927 0.030753944 -0.11948977 -0.07865342 0.07693354
-0.14556536 -0.097451724 -0.087818846 -0.03972001 -0.0391265 -0.044774067 -0.03658879 0.08779682
0.06917333 -0.00097194884 -0.10180388 0.09281278 0.12624428 -0.0025414177 0.14631411 0.023580771
-0.14727864 0.02566804 -0.055247333 0.09861985 0.102006815 -0.044207748 -0.021967554 -0.25340873
-0.20885429 -0.17035112 -0.1957818 -0.08459181 -0.07809606 -0.06728259 -0.01800043 0.08986574
0.15301657 -0.03319412 0.081448324 -0.004896412 0.02270897 -0.036233176 -0.08347855 -0.09488907
0.009336821 -0.14133538 -0.09588152 0.11050358 -0.119328626 0.0027387573 0.15225452 0.033007383
0.0175883 -0.008808485 0.12643635 0.05867189 -0.04749072 0.028147101 0.12912692 -0.13427225
-0.05340089 -0.08297683 0.05218768 -0.06269829 0.024338378 0.0817571 0.09704585 -0.16150157
-0.019935936 -0.09342043 -0.090655185 -0.07395225 -0.11577128 0.09813998 0.11570537 -0.060092013
-0.1379402 -0.075649686 -0.033365153 -0.02508758 -0.02886995 -0.023161624 -0.029602224 -0.034645863
0.04907628 0.16885278 -0.06652356 0.05013105 0.094428666 0.0684294 0.0035166908 -0.036190365
0.037413176 0.053030632 -0.092929535 -0.11972587 0.10109036 0.029777471 0.08615846 0.044110257
-0.055168726 -0.14871627 -0.12978388 -0.026490396 -0.03435323 -0.11275841 -0.11873946 -0.048593618
-0.15381259 0.057511553 0.013515476 0.124045864 0.087377146 0.05358153 -0.00025745726 0.04090395
-0.15379559 0.15662314 0.13926552 0.03060474 -0.14990096 -0.12493758 -0.016505146 -0.021247517
-0.17503802 0.020494044 -0.0069847563 0.12544225 -0.20373212 0.032813404 -0.043647837 0.029633138
0.04356112 0.15703437 0.08154222 0.050063368 -0.055068213 -0.12016327 -0.13793394 -0.111178994
0.047257554 0.04248275 -0.06388277 0.015912589 -0.0100091435 0.09899685 0.080678046 -0.196271
-0.09090976 -0.108532645 -0.11943173 -0.043047015 0.045017008 0.107204355 0.005987909 -0.061129697
0.060592275 0.12475913 -0.027733484 0.11366028 0.11115244 0.0026525827 -0.08482765 -0.07431835
-0.12583552 0.034675688 -0.03815394 0.03663041 -0.15106106 0.062365614 -0.1210932 0.09988974
0.14379969 0.12630138 0.101243325 0.055559635 -0.0615929 0.17660005 0.08067428 0.0050974037
0.062179383 -0.005970002 -0.12144785 -0.15717852 0.10846675 -0.011737072 0.10774321 -0.033515733
0.056390762 -0.07846464 0.033313267 0.07162978 0.04289747 -0.028642818 0.025479538 0.02777292
-0.022989258 0.07976897 -0.12718199 -0.050558716 0.08321739 0.11955234 -0.09170041 -0.12262142
-0.016023051 -0.077571765 0.05280533 -0.1289614 -0.13046688 0.10283687 -0.09066596 0.1168186
-0.080141924 0.014160131 -0.03245617 0.09487013 -0.1320548 -0.03095239 0.017195662 -0.03510304
0.08040001 0.07800283 -0.12047843 -0.111451335 0.0038781876 0.13303274 -0.07918953 0.016749252

fc3.bias f4 [5]
00000000: da73 733c 2d17 1dbd 6bba bebc e3f4 c83d
00000010: 8d82 243d
0.014859164 -0.03835218 -0.02328225 0.098123334 0.040163565
