old-models/classifier1.pt (torch, 431317 bytes, 12 tensors)

conv1.weight f4 [16, 3, 5, 5]
-0.19050466 -0.007774149 -0.039049525 -0.034479126 -0.19242525 -0.21403803 0.0048301104 0.024281213
-0.12676902 -0.10508877 0.105874576 -0.026674755 0.09863978 -0.003065839 0.042692706 0.13623853
-0.007413109 0.038733453 0.035052493 0.03578992 0.100788504 0.012722182 -0.15794365 0.10486422
0.12448198 -0.22995971 -0.07557752 -0.052304253 -0.100940816 -0.041774925 0.018857047 -0.14315303
0.012759899 0.05297015 -0.0815476 0.028726665 0.051618923 -0.033828177 0.07694214 -0.016373366
0.18361606 -0.04995222 0.055151004 0.1918101 0.14256777 0.19897278 -0.020005602 -0.13488454
0.10814476 0.028671164 -0.021467768 0.075014085 0.020093137 -0.059371684 -0.042110037 0.054341387
-0.0007788442 0.015870137 -0.038485754 0.006495343 0.10463661 -0.09841941 -0.05878337 0.08053991
-0.021516249 0.1691241 -0.10290038 -0.086781226 0.11599782 -0.002703886 0.1371826 -0.12001593
-0.10446217 0.1122594 -0.0017370593 0.21853875 0.08180542 0.19467038 0.16368286 0.1253354
-0.13449441 -0.086391844 0.034610964 0.043387815 -0.07657063 -0.07313705 -0.055626698 -0.06288808
0.09459636 -0.024862625 -0.07001529 0.00294151 -0.016215006 0.111556195 -0.13072014 -0.08301721
-0.00085078966 0.063396245 0.013710586 -0.023392718 0.10413163 0.16512962 0.15985115 0.17924371
0.22857817 -0.010299039 0.12048117 0.07316437 -0.04736457 -0.013976875 -0.15620829 0.043553296
0.014993615 -0.07755702 -0.007470802 -0.052090302 0.060172588 0.013217629 -0.05317643 -0.11068406
-0.01160571 0.07750436 0.083035074 0.04309855 -0.12706937 0.13111077 0.0656923 -0.021223014
0.17726137 0.19709456 0.02111925 0.042168412 0.02711 0.13087961 0.081007056 0.030430619
0.09598232 0.11181468 0.1764032 0.084484234 -0.087448135 0.1509543 0.029250272 0.17172049
0.080269314 0.023176037 0.011312631 -0.027234964 0.14485805 0.058893777 -0.017328614 0.3049148
0.103485696 -0.06853899 0.072501086 -0.16472776 0.0053292825 0.22836903 -0.070444256 0.004784189
-0.065489024 0.076614805 0.020053238 -0.16296493 -0.19542806 -0.17131984 0.0018307007 0.24879253
-0.20247833 -0.08035897 -0.14098255 -0.0067945733 0.17615783 -0.038745668 -0.07312361 0.008204623
0.029218718 0.23965652 -0.0023056434 0.00049684255 -0.115081854 -0.0035686388 0.113008834 -0.12751816
0.08836025 -0.25805905 0.14614677 0.10593462 -0.1559259 -0.0638418 -0.018985812 0.09977913
0.19640405 -0.14049174 -0.06308068 -0.025685327 0.114234865 0.19138141 -0.12151765 -0.08552909
-0.028748622 0.011806498 -0.013212085 -0.14047302 -0.010044315 -0.024855126 0.13166466 0.15737851
-0.12606585 -0.026025457 -0.007958307 -0.06546287 0.22652394 -0.009343929 0.08372879 -0.04569505
-0.0017697527 0.0042633144 -0.041907497 0.0424381 -0.035345662 0.024708964 0.043518446 0.00065394584
-0.052717693 0.03147515 0.00021045435 -0.048187822 -0.009990667 -0.07590712 0.016420249 -0.0789116
0.05969735 0.07588553 0.006967405 0.04690087 -0.06207092 0.031868882 -0.01223973 -0.04943365
-0.031076174 -0.061297838 0.046567824 0.022387207 -0.046630338 0.026419379 -0.055529 -0.07492787
-0.097173735 -0.021331357 0.0253096 -0.14542192 0.0044410755 -0.097649924 0.11580383 -0.0910571
00000000: a713 43be 4abe febb 65f2 1fbd fc39 0dbd
00000010: 200b 45be c92c 5bbe e745 9e3b 65e9 c63c
00000020: bdcf 01be c838 d7bd c5d4 d83d 0485 dabc
00000030: a703 ca3d 3eec 48bb 8cde 2e3d 1d82 0b3e
00000040: aae9 f2bb f8a6 1e3d 3493 0f3d 7398 123d
00000050: 346a ce3d b370 503c fbbb 21be 0dc3 d63d
00000060: 69f0 fe3d 8f7a 6bbe 63c8 9abd fc3c 56bd
00000070: 0fba cebd 2f1c 2bbd 187a 9a3c b596 12be
00000080: e50e 513c 3af7 583d 6e02 a7bd 2f54 eb3c
00000090: 5d6e 533d 6a8f 0abd d793 9d3d 7021 86bc
000000a0: d905 3c3e b39a 4cbd 05e6 613d de69 443e
000000b0: 49fd 113e 85bf 4b3e cae2 a3bc 2c1f 0abe
000000c0: 007b dd3d cadf ea3c 2cdd afbc fca0 993d
000000d0: 5d9a a43c b92f 73bd 937b 2cbd 1395 5e3d
000000e0: 592b 4cba 1702 823c 3da3 1dbd e3d6 d43b
000000f0: b84b d63d 1e90 c9bd d5c6 70bd 1cf2 a43d
00000100: d842 b0bc de2e 2d3e 6fbd d2bd 5bba b1bd
00000110: 4490 ed3d ae33 31bb 9879 0c3e e9ca f5bd
00000120: 43f0 d5bd 42e8 e53d 0aae e3ba 9fc8 5f3e
00000130: 9a89 a73d ac57 473e 7b9c 273e ec57 003e
00000140: e7b8 09be 35ee b0bd 3ac4 0d3d 6cb7 313d
00000150: 10d1 9cbd e1c8 95bd d2d8 63bd 77cb 80bd
00000160: bdbb c13d b4ac cbbc 2d64 8fbd 59c6 403b
00000170: 55d5 84bc 9377 e43d 80db 05be ed04 aabd
00000180: 8707 5fba e4d5 813d 5ea2 603c 16a2 bfbc
00000190: f742 d53d bd17 293e 05b0 233e aa8b 373e
000001a0: 6510 6a3e 4dbd 28bc d5be f63d 34d7 953d
000001b0: 5a01 42bd 43ff 64bc 11f5 1fbe f164 323d
000001c0: c8a7 753c 37d6 9ebd a1cd f4bb a45c 55bd
000001d0: 8877 763d c18e 583c 87cf 59bd 53ae e2bd
000001e0: e025 3ebc 9bba 9e3d 4b0e aa3d 1b88 303d
000001f0: 791e 02be e741 063e af89 863d e3db adbc
00000200: 0184 353e 28d3 493e 4702 ad3c c9b8 2c3d
00000210: ca15 de3c 4e05 063e 07e7 a53d a249 f93c
00000220: 6192 c43d 18ff e43d 0aa3 343e 1206 ad3d
00000230: 0218 b3bd c493 1a3e 449e ef3c 7fd7 2f3e
00000240: 3d64 a43d acdb bd3c 9d58 393c dc1b dfbc
00000250: ab55 143e 9a3a 713d bdf4 8dbc cb1d 9c3e
00000260: 4ff0 d33d 2c5e 8cbd 737b 943d 65ae 28be
00000270: 43a1 ae3b 92d9 693e 1445 90bd b0c4 9c3b
00000280: 1c1f 86bd 39e8 9c3d b046 a43c 47e0 26be
00000290: 4b1e 48be 786e 2fbe 1ff4 ef3a 78c3 7e3e
000002a0: 7b56 4fbe 3e93 a4bd bb5d 10be 03a5 debb
000002b0: b862 343e c7b3 1ebd d5c1 95bd af6c 063c
000002c0: 185c ef3c 8568 753e 471a 17bb 8a3e 023a
000002d0: 09b0 ebbd d3df 69bb 2d71 e73d 1f94 02be
000002e0: 38f6 b43d 5120 84be 80a7 153e 40f4 d83d
000002f0: 0aab 1fbe 7dbf 82bd 2288 9bbc 0059 cc3d
00000300: 251e 493e 11dd 0fbe 7230 81bd 096a d2bc
00000310: f8f3 e93d 7df9 433e 3fde f8bd e029 afbd
00000320: 3b82 ebbc 0b70 413c 8077 58bc 29d8 0fbe
00000330: e990 24bc fa9c cbbc 1ad3 063e d527 213e
00000340: 6817 01be 5733 d5bc 8f63 02bc 6611 86bd
00000350: e4f5 673e 4717 19bc 007a ab3d bc2a 3bbd
00000360: 0cf7 e7ba 46b3 8b3b 32a7 2bbd 93d3 2d3d
00000370: 9dc6 10bd 746a ca3c 6640 323d 906d 2b3a
00000380: 82ee 57bd 16ec 003d 69ad 5c39 9860 45bd
00000390: e5af 23bc 3175 9bbd c283 863c 689c a1bd
000003a0: 3585 743d df69 9b3d d44e e43b 201b 403d
000003b0: 143e 7ebd f288 023d 2689 48bc f07a 4abd
000003c0: 7693 febc 7113 7bbd e7bd 3e3d 6065 b73c
000003d0: 74ff 3ebd 746d d83c 6072 63bd c873 99bd
000003e0: 0603 c7bd 19bf aebc 1456 cf3c 7ce9 14be
000003f0: 7186 913b affc c7bd 8f2a ed3d 257c babd

conv1.bias f4 [16]
-0.51701623 -0.36870864 -0.39332458 -0.40884608 -0.44874346 -0.4025324 -0.22180423 -0.3834342
-0.21854876 -0.35113227 -0.47866324 -0.33319294 -0.33678553 -0.34292537 -0.485354 -0.30118966
00000000: 2d5b 04bf 61c7 bcbe d761 c9be 4654 d1be
00000010: b4c1 e5be ba18 cebe a620 63be 7d51 c4be
00000020: 3fcb 5fbe 9cc7 b3be 5913 f5be 4498 aabe
00000030: 276f acbe ea93 afbe 5280 f8be 8835 9abe

conv2.weight f4 [32, 16, 5, 5]
-0.085775346 -0.13719165 -0.09590276 -0.12660542 -0.00027975847 0.19175728 0.051426586 0.08885397
0.035849992 0.029311923 -0.16242713 -0.10431557 -0.11142956 -0.108363114 -0.04926737 -0.14841527
-0.1527781 -0.1380798 -0.11354657 -0.19160306 -0.094749875 -0.16296136 -0.10299177 -0.031467382
-0.029242227 0.00081206416 -0.05013412 -0.051183727 -0.029126992 -0.020444311 -0.1245393 -0.080565974
-0.11337468 -0.0689572 -0.0919634 -0.10564804 -0.05736558 -0.06717029 -0.030557381 -0.03683476
-0.07168451 -0.01913234 -0.111379504 -0.024255998 -0.053879205 -0.060713172 -0.0035188312 -0.03731512
-0.001101829 -0.003714581 0.0121025415 -0.06927935 -0.052986685 -0.008859563 -0.006858496 -0.0063869776
-0.14236702 -0.089444466 -0.06045191 -0.0038589288 -0.11326268 -0.20526515 -0.10287038 -0.05525011
-0.05111453 -0.17414834 -0.19303851 -0.19327396 -0.15971616 -0.07256002 -0.11939215 -0.1267826
-0.13100427 -0.10720426 -0.12886962 -0.0060921228 0.06840855 0.037223715 0.06950167 0.06140194
-0.09384482 -0.092100255 0.024217123 0.021847077 0.0029243808 -0.14611438 -0.14332813 -0.081444204
0.048439503 0.103291646 -0.17592801 -0.2602429 -0.16258644 -9.39265e-05 0.048296865 -0.104967065
-0.18276455 -0.18143782 -0.03625759 0.03217463 -0.13465418 -0.1376525 -0.19075981 -0.181951
-0.1683264 -0.04925491 -0.052611206 -0.0922867 -0.09978042 -0.059065826 0.012830349 0.006951979
0.006392011 -0.047225036 -0.0011737723 -0.03657298 0.0012606455 0.023094168 -0.107292585 -0.008691532
0.025692021 0.0073636738 -0.055272847 -0.017094195 -0.1015546 0.044907797 -0.095039494 -0.039486922
-0.06314288 -0.0025823477 -0.0669718 -0.13248137 -0.15949729 -0.11536743 -0.017593281 -0.10766836
-0.14380233 -0.17387882 -0.156649 -0.07490853 -0.13576905 -0.11759443 -0.10714494 -0.12714519
-0.17608836 -0.090294786 -0.06482982 0.0046657547 -0.023775877 -0.03485844 -0.05923775 -0.077277966
-0.090197355 -0.03635591 -0.101681985 -0.03120199 -0.14921996 -0.15489025 -0.06330129 -0.06567005
-0.030238787 -0.0060334858 -0.06494059 -0.12510225 9.835543e-05 -0.051534094 -0.023831584 -0.014150093
0.0042742225 -0.10211531 0.040510062 -0.014429311 -0.024676828 -0.004395553 -0.053686313 0.048068598
0.07926068 0.050781343 0.093606815 -0.0028258322 -0.035120394 -0.01895868 -0.024071166 -0.00966791
0.020815529 -0.16116677 -0.17533617 -0.07513806 0.0125538865 0.033508807 -0.16903354 -0.26432028
-0.15292704 -0.0892481 -0.023776751 -0.13985619 -0.19872385 -0.20863745 -0.097054645 -0.040919244
-0.03660339 -0.0382285 -0.111619614 -0.085300155 -0.056649443 -0.054224398 -0.0484837 -0.12537958
-0.024775129 -0.018064283 -0.003290561 -0.06819036 -0.092776984 -0.10630179 -0.009462856 -0.07888263
0.0039491886 -0.08619426 -0.06753225 -0.005012075 -0.013033754 0.02346004 -0.016164476 -0.035328068
-0.049569815 -0.104749724 -0.0887042 -0.07469235 -0.042377364 -0.063572586 -0.05841734 -0.1186039
-0.09333239 -0.032305412 0.022112751 -0.08083661 -0.072804175 -0.114274815 -0.09305482 -0.03262571
-0.15736364 -0.097544864 -0.096052215 -0.087424085 -0.06897382 -0.077073954 -0.047791023 -0.09825625
-0.06795003 -0.08277566 -0.0611547 -0.13186707 -0.13690528 -0.038809046 -0.03583533 0.012719147
00000000: fcaa afbd f87b 0cbe ab68 c4bd daa4 01be
00000010: 8cac 92b9 055c 443e afa4 523d 12f9 b53d
00000020: 71d7 123d 8f1f f03c 4c53 26be 67a3 d5bd
00000030: 2e35 e4bd 7bed ddbd 95cc 49bd 2cfa 17be
00000040: dd71 1cbe cb64 0dbe 1b8b e8bd 9833 44be
00000050: 390c c2bd 58df 26be 59ed d2bd f1e3 00bd
00000060: 658d efbc b4e0 543a 6f59 4dbd 07a6 51bd
00000070: bb9b eebc d47a a7bc 760e ffbd c6ff a4bd
00000080: fc30 e8bd 6f39 8dbd 4f57 bcbd 005e d8bd
00000090: 2cf8 6abd 9490 89bd 7953 fabc 0ce0 16bd
000000a0: 54cf 92bd 6dbb 9cbc f01a e4bd 84b4 c6bc
000000b0: 71b0 5cbd 60ae 78bd 319c 66bb bdd7 18bd
000000c0: 3f6b 90ba 5470 73bb bd49 463c 55e2 8dbd
000000d0: 9108 59bd b327 11bc 3cbd e0bb da49 d1bb
000000e0: a9c8 11be a92e b7bd 6c9c 77bd 15e6 7cbb
000000f0: 44f6 e7bd 0731 52be b5ad d2bd f04d 62bd
00000100: 785d 51bd f153 32be e3ab 45be 9ce9 45be
00000110: a28c 23be 599a 94bd df83 f4bd 4cd3 01be
00000120: fc25 06be e88d dbbd 66f6 03be 6ea0 c7bb
00000130: c819 8c3d e577 183d e456 8e3d 9a80 7b3d
00000140: b731 c0bd 0f9f bcbd fd62 c63c a4f8 b23c
00000150: f8a6 3f3b 029f 15be 9cc4 12be 38cc a6bd
00000160: 8068 463d 928a d33d 7926 34be 8f3e 85be
00000170: 0f7d 26be 68fa c4b8 efd2 453d f9f8 d6bd
00000180: a126 3bbe d6ca 39be d782 14bd 8bc9 033d
00000190: c9e2 09be c7f4 0cbe 8a56 43be 5d51 3abe
000001a0: c15d 2cbe 84bf 49bd d97e 57bd cf00 bdbd
000001b0: ad59 ccbd 02ef 71bd 6236 523c 6dcd e33b
000001c0: 1374 d13b 0a6f 41bd 43d9 99ba 8dcd 15bd
000001d0: 3e3c a53a fb2f bd3c 37bc dbbd ed66 0ebc
000001e0: 1378 d23c f94a f13b c865 62bd 2009 8cbc
000001f0: dcfb cfbd 3df1 373d 11a4 c2bd 0abd 21bd
00000200: 0e51 81bd 9b3c 29bb 8328 89bd 32a9 07be
00000210: 4253 23be c245 ecbd c91f 90bc 3b81 dcbd
00000220: eb40 13be 4a0d 32be 9868 20be a569 99bd
00000230: 0b07 0bbe 59d5 f0bd ce6e dbbd 5932 02be
00000240: 8250 34be 79ec b8bd 7fc5 84bd 30e3 983b
00000250: a1c5 c2bc b9c7 0ebd 48a3 72bd e943 9ebd
00000260: 64b9 b8bd efe9 14bd a53e d0bd 519b ffbc
00000270: 1ecd 18be 8d9b 1ebe 1ba4 81bd 057e 86bd
00000280: 55b7 f7bc 8cb4 c5bb 92ff 84bd ce1a 00be
00000290: 2b44 ce38 6a15 53bd 743a c3bc cbd5 67bc
000002a0: c70e 8c3b d521 d1bd e1ed 253d eb68 6cbc
000002b0: 0f27 cabc 9208 90bb 2ee6 5bbd 94e3 443d
000002c0: 6c53 a23d 1900 503d eeb4 bf3d 9931 39bb
000002d0: 67da 0fbd 3c4f 9bbc e530 c5bc 2766 1ebc
000002e0: 5485 aa3c e708 25be 538b 33be fce1 99bd
000002f0: d1ae 4d3c 8840 093d 2117 2dbe fd54 87be
00000300: e898 1cbe b5c7 b6bd 76c7 c2bc 7636 0fbe
00000310: 447e 4bbe 0ea5 55be 96c4 c6bd f09a 27bd
00000320: 70ed 15bd 7d95 1cbd d398 e4bd d9b1 aebd
00000330: 3f09 68bd 671a 5ebd d896 46bd 8163 00be
00000340: 36f5 cabc 8cfb 93bc 74a6 57bb 63a7 8bbd
00000350: dc01 bebd c1b4 d9bd 180a 1bbc 378d a1bd
00000360: 3268 813b 9e86 b0bd 594e 8abd 553c a4bb
00000370: 878b 55bc 452f c03c 5d6b 84bc 2ab4 10bd
00000380: b809 4bbd 0687 d6bd 8caa b5bd 4ef8 98bd
00000390: e393 2dbd 5832 82bd 0547 6fbd 9ae6 f2bd
000003a0: 0d25 bfbd ae52 04bd cd25 b53c aa8d a5bd
000003b0: 5b1a 95bd ea08 eabd 8793 bebd 89a2 05bd
000003c0: ef23 21be 9ac5 c7bd 06b7 c4bd 660b b3bd
000003d0: 2542 8dbd f3d8 9dbd 85c0 43bd 933a c9bd
000003e0: 6329 8bbd 4986 a9bd 5a7d 7abd 2908 07be
000003f0: e630 0cbe 3cf6 1ebd 11c8 12bd f863 503c

conv2.bias f4 [32]
-0.010273498 0.03544991 -0.062341593 0.14829807 -0.0027349112 -0.0036977192 0.18903987 0.013330944
-0.10883531 0.016071562 -0.045572955 -0.03718352 0.0018054965 0.07502766 -0.046698872 0.11705127
-0.120719776 -0.080986656 -0.2132612 0.040152118 0.040352967 0.033667933 -0.0031085764 0.014005532
0.11041607 0.007863212 -0.031061849 -0.033135183 0.12973206 0.2263099 0.01084796 0.08931233
00000000: 2c52 28bc ed33 113d e659 7fbd 73db 173e
00000010: 323c 33bb 6f55 72bb ab93 413e 086a 5a3c
00000020: 0ce5 debd 82a8 833c b5aa 3abd bf4d 18bd
00000030: 69a6 ec3a 1aa8 993d 5147 3fbd 94b8 ef3d
00000040: ee3b f7bd 55dc a5bd 2561 5abe 8c76 243d
00000050: 2749 253d 63e7 093d 42b9 4bbb 7577 653c
00000060: d221 e23d b4d4 003c 6b75 febc c2b8 07bd
00000070: 7bd8 043e c8bd 673e a4bb 313c 62e9 b63d

conv3.weight f4 [64, 32, 5, 5]
0.073131934 0.07208432 0.05692734 0.05870991 0.090268046 0.17254767 0.1015416 0.09300209
0.14505705 0.12870117 0.031851564 0.106840946 0.008550301 -0.0021982344 0.06762175 0.006700628
-0.041573938 -0.049757417 0.009936323 0.00664062 -0.006903529 -0.08817198 -0.06723275 -0.08415255
-0.04712537 0.024039963 -0.10979361 0.017198954 0.1412121 0.006757073 -0.09680154 -0.05429524
-0.09428477 0.05446144 0.015200401 -0.23012759 -0.117912196 -0.004370675 -0.08235748 -0.029263511
-0.19706522 -0.2710456 -0.27152598 -0.18958701 -0.17278123 -0.22662933 -0.24973515 -0.36818606
-0.1333675 -0.21087757 -0.005075994 0.05339291 0.043660898 0.029674817 0.054796666 0.0015492558
-0.0009995699 -0.034757923 0.0039493702 0.064390495 -0.007399376 0.056182355 -0.030638322 -0.042316865
0.0069118235 -0.042927887 0.0160516 -0.020683564 0.028716125 -0.008351379 0.007855123 -0.055909503
0.027613206 -0.03564279 0.0055120955 -0.01060574 -0.055352584 -0.0013983413 0.08469976 -0.09639325
-0.03789849 0.10107154 0.10452576 0.12117597 0.022858104 0.01772284 -0.035260186 0.04933817
-0.047003176 0.026071256 0.033721138 0.011721284 0.029029792 -0.068852946 -0.025001299 0.026476875
0.032039825 -0.048804007 0.0063700546 0.04693801 -0.07370111 -0.15737225 -0.0568283 -0.12269924
0.007386471 -0.06204528 -0.08094604 -0.12084913 -0.08720807 -0.044485595 -0.024529306 -0.007609946
0.019278156 -0.12061472 -0.10280403 -0.04869219 -0.11690588 0.00418235 -0.03830883 -0.040943567
-0.22219321 -0.14203194 -0.19371937 -0.19541778 -0.14506532 0.04678607 -0.01751901 -0.047530547
0.03942159 0.026812539 -0.19139664 -0.040057287 -0.066922784 0.0035436943 -0.06088801 -0.0177396
-0.007539732 -0.021890387 0.05868895 -0.010620505 -0.061450925 0.092223994 0.08437376 0.10724994
-0.04861404 -0.07769444 -0.022291427 0.015375431 -0.040242665 -0.06320075 -0.23986344 -0.06809261
-0.12279601 -0.059316088 -0.098107174 0.06396088 -0.011982876 -0.13085386 0.09639855 0.16730973
0.0061065834 0.095900804 0.26183206 0.105267555 0.09163777 -0.034549937 0.062590964 0.00893866
-0.09563327 -0.030162955 -0.07641498 0.0548265 0.054281197 -0.0107200295 -0.027009763 0.013484151
0.0013867127 0.021218812 0.089192554 -0.16852447 0.08347651 0.076447584 -0.07385178 -0.074831046
-0.07089604 -0.023806106 -0.03951972 -0.006497571 -0.0605845 -0.05733741 -0.03212028 -0.048940413
-0.03738593 -0.0589558 -0.07598722 -0.09811716 -0.06811293 -0.07302181 -0.10047922 -0.15242016
-0.03231118 0.041169923 0.050590176 0.027945435 0.032365832 0.007864938 0.03122188 -0.021362456
0.007400114 0.014092549 -0.03750376 -0.014731936 0.011000182 0.030277994 -0.021224897 0.00240033
0.008850458 0.04409296 0.008219326 -0.016861593 -0.024392642 -0.036163457 0.055681176 -0.056914605
-0.050361484 -0.23370211 -0.23521388 0.14379774 0.081099324 -3.583464e-05 0.034368042 -0.02508607
0.17029788 0.21998435 -0.11558732 0.055053513 0.07528946 0.13597581 0.17748065 0.044791296
0.008466342 -0.17517571 -0.09381756 0.062639534 0.022532871 -0.2700448 -0.35802904 -0.28104216
-0.14499822 -0.108418845 0.025759615 -0.021274276 -0.015133183 0.04903113 0.15343687 0.04486828
00000000: 32c6 953d f2a0 933d a42c 693d cd79 703d
00000010: 74de b83d 56b0 303e 0bf5 cf3d e177 be3d
00000020: d689 143e 3dca 033e c976 023d 6dcf da3d
00000030: 9016 0c3c 4110 10bb 467d 8a3d f190 db3b
00000040: 6f49 2abd 6fce 4bbd f6cb 223c 8f99 d93b
00000050: 0037 e2bb 8393 b4bd 53b1 89bd 2c58 acbd
00000060: 8806 41bd 75ef c43c 79db e0bd d2e4 8c3c
00000070: e899 103e 706a dd3b e33f c6bd b064 5ebd
00000080: 6018 c1bd f512 5f3d 1a0b 793c 91a6 6bbe
00000090: f37b f1bd e137 8fbb 0aab a8bd 08ba efbc
000000a0: 77cb 49be 7dc6 8abe 7405 8bbe 1923 42be
000000b0: 90ed 30be 8511 68be 92ba 7fbe e282 bcbe
000000c0: 7d91 08be 4af0 57be 8654 a6bb 86b2 5a3d
000000d0: c5d5 323d 9a18 f33c 7872 603d 6610 cb3a
000000e0: 0004 83ba 535e 0ebd b869 813b 2adf 833d
000000f0: 7776 f2bb 781f 663d 38fd fabc 7354 2dbd
00000100: 947c e23b 27d5 2fbd a57e 833c 9470 a9bc
00000110: 143e eb3c 39d4 08bc c6b2 003c 5d01 65bd
00000120: 1735 e23c 2dfe 11bd cf9e b43b b3c3 2dbc
00000130: 64b9 62bd 8c48 b7ba 1177 ad3d d369 c5bd
00000140: 723b 1bbd 98fe ce3d 9a11 d63d 1b2b f83d
00000150: eb40 bb3c 7d2f 913c fc6c 10bd d216 4a3d
00000160: 6786 40bd 6393 d53c 2d1f 0a3d a10a 403c
00000170: e3cf ed3c c602 8dbd 86cf ccbc 08e6 d83c
00000180: 313c 033d b6e6 47bd e4bb d03b 1242 403d
00000190: 9cf0 96bd 3126 21be cbc4 68bd bd49 fbbd
000001a0: 360a f23b 3123 7ebd 0ac7 a5bd c07f f7bd
000001b0: 259a b2bd 8736 36bd aff1 c8bc db5c f9bb
000001c0: 39ed 9d3c da04 f7bd eb8a d2bd 7671 47bd
000001d0: 5a6c efbd 180c 893b b8e9 1cbd 71b4 27bd
000001e0: 9e86 63be d270 11be 5f5e 46be 991b 48be
000001f0: 018c 14be c0a2 3f3d 0784 8fbc 64af 42bd
00000200: 8878 213d f8a5 db3c 7bfd 43be 1c13 24bd
00000210: d00e 89bd 533d 683b b565 79bd a352 91bc
00000220: db0f f7bb 7853 b3bc d363 703d a001 2ebc
00000230: f7b3 7bbd efdf bc3d 26cc ac3d dba5 db3d
00000240: 841f 47bd 431e 9fbd 839c b6bc 3be9 7b3c
00000250: 7ed5 24bd 656f 81bd c39e 75be 2374 8bbd
00000260: 797c fbbd 6df5 72bd 6aec c8bd ecfd 823d
00000270: d353 44bc 8efe 05be 9a6c c53d 3e53 2b3e
00000280: bc19 c83b a467 c43d da0e 863e 8496 d73d
00000290: 95ac bb3d 3c84 0dbd b12f 803d 7573 123c
000002a0: 60db c3bd 4d18 f7bc 757f 9cbd c191 603d
000002b0: f655 5e3d 10a3 2fbc 9443 ddbc a1ec 5c3c
000002c0: 5bc2 b53a 13d3 ad3c 96aa b63d ae91 2cbe
000002d0: bcf5 aa3d 8d90 9c3d 9a3f 97bd 0541 99bd
000002e0: f131 91bd 0605 c3bc 6edf 21bd 93e9 d4bb
000002f0: 7427 78bd a2da 6abd 8e90 03bd be75 48bd
00000300: fd21 19bd a37b 71bd 309f 9bbd a6f1 c8bd
00000310: cb7e 8bbd 758c 95bd 0dc8 cdbd 0814 1cbe
00000320: ba58 04bd cba1 283d a537 4f3d d3ed e43c
00000330: 0992 043d f1db 003c 07c5 ff3c 5100 afbc
00000340: a87c f23b 6fe4 663c 8b9d 19bd 385e 71bc
00000350: 1b3a 343c 8e09 f83c d6df adbc db4e 1d3b
00000360: 8301 113c d29a 343d 5aaa 063c 5321 8abc
00000370: 14d3 c7bc 2220 14bd f211 643d 4a1f 69bd
00000380: d847 4ebd 9b4f 6fbe e8db 70be b73f 133e
00000390: 6717 a63d 274d 16b8 81c5 0c3d 4d81 cdbc
000003a0: 9162 2e3e 9443 613e 0bb9 ecbd cb7f 613d
000003b0: 5c31 9a3d 3e3d 0b3e 7dbd 353e 1477 373d
000003c0: 6ab6 0a3c 4361 33be 6c23 c0bd 2849 803d
000003d0: db96 b83c 5043 8abe 954f b7be c2e4 8fbe
000003e0: 6a7a 14be b30a debd d405 d33c 6447 aebc
000003f0: 2cf1 77bc ded4 483d 8e1e 1d3e cdc7 373d

conv3.bias f4 [64]
0.0033941045 -0.20996277 0.112999134 0.06546756 -0.11912757 0.04745707 0.21727414 -0.10179788
-0.027265335 0.314062 0.19984834 -0.019845728 0.24561748 -0.24941695 -0.09288429 -0.17068812
0.035968762 -0.061986655 0.23614268 -0.2045945 0.060097538 0.26243165 0.0042127897 0.29391482
-0.08901278 0.29618803 0.21079558 0.008278841 0.09079292 -0.061961874 -0.16961227 0.06237782
0.13778456 0.27091408 0.01200205 -0.25891083 -0.08303609 0.09861764 0.12172588 0.04581226
-0.26042372 -0.014968115 -0.04718762 0.19064774 0.09926616 -0.10310467 -0.27774206 -0.097275905
-0.052515544 0.063459896 0.3107159 0.19180454 0.15260918 -0.115291245 -0.053369276 0.06606847
-0.06575803 -0.28643957 -0.12926482 -0.19357288 -0.0893795 0.13138136 -0.11428873 0.34959936
00000000: a06f 5e3b 7b00 57be 176c e73d db13 863d
00000010: 28f9 f3bd 5862 423d 1d7d 5e3e 687b d0bd
00000020: 8d5b dfbc bccc a03e 0ba5 4c3e 8293 a2bc
00000030: 2683 7b3e 2867 7fbe 1e3a bebd dec8 2ebe
00000040: fb53 133d b8e5 7dbd 63cf 713e 3881 51be
00000050: d628 763d 715d 863e 710b 8a3b 017c 963e
00000060: 554c b6bd f5a5 973e ccda 573e faa3 073c
00000070: a3f1 b93d bccb 7dbd d7ae 2dbe e37f 7f3d
00000080: 6517 0d3e 40b5 8a3e 3fa4 443c f68f 84be
00000090: d30e aabd 0cf8 c93d 6b4b f93d a3a5 3b3d
000000a0: 4256 85be d33c 75bc ce47 41bd 2939 433e
000000b0: 0e4c cb3d 8b28 d3bd 3534 8ebe 9738 c7bd
000000c0: 8a1a 57bd 43f7 813d 2816 9f3e 6968 443e
000000d0: 9545 1c3e d11d ecbd be99 5abd e84e 873d
000000e0: 25ac 86bd 35a8 92be ff5d 04be f837 46be
000000f0: 990c b7bd d688 063e 3610 eabd b0fe b23e

fc1.weight f4 [128, 256]
-0.08485526 -0.085137084 -0.12237392 -0.056016922 -0.074251585 -0.1191513 0.0225873 0.017714601
-0.12377927 0.042783428 -0.018659616 -0.12598372 -0.081524916 0.053488094 -0.020823922 -0.029911192
-0.15765494 -0.022976205 0.060255617 0.080474496 -0.0034393615 0.014480943 -0.08170902 -0.08286138
-0.034750585 0.0023666276 0.064995706 0.031510968 -0.007023835 -0.01853647 0.019097472 -0.040943895
-0.00077928306 0.036120355 -0.032162398 -0.040530823 0.09456221 0.065010235 0.06778894 -0.040792722
0.04618848 -0.032370705 0.0063599576 -0.029132437 -0.08764027 -0.044939317 -0.14883354 -0.1268376
-0.11803945 -0.035556536 -0.13225806 -0.10671174 -0.11062163 -0.12867746 -0.018781101 -0.1256058
-0.2008787 -0.025932621 -0.14558509 -0.20433591 -0.0312638 -0.11511886 0.05594744 0.022329245
-0.06361406 -0.0062806807 -0.002200444 0.08959851 -0.12799713 -0.22295427 0.06682066 -0.091087915
-0.007081127 0.07174366 0.023506738 -0.025002737 -0.17020239 0.1074436 0.10672882 0.030914843
-0.008238926 -0.09635482 -0.04444084 -0.07258404 -0.06794931 -0.042594355 0.014407589 -0.054470804
-0.06262859 -0.077183075 -0.02998102 -0.029355964 0.03721782 0.14770675 -0.007857463 0.06620664
0.06368082 0.18114299 -0.039429117 -0.14132161 0.029960858 0.016966963 -0.09256802 -0.07040141
-0.17527984 0.0058305385 -0.08649057 -0.044118695 -0.12608722 -0.07237065 -0.17407104 0.05578227
-0.17353138 -0.042590216 -0.0074453894 0.056715004 -0.047635514 0.008284187 -0.13062333 -0.11677544
-0.17143473 -0.022174394 -0.08175071 -0.008811079 -0.12522009 -0.08020388 -0.12370739 -0.03046845
-0.12096937 -0.032779917 -0.017302623 -0.028988335 0.024662923 -0.04088305 0.08818028 -0.016815586
-0.16379175 -0.05363734 -0.10443308 0.04451166 -0.10701842 -0.084194325 0.059128013 -0.0073972032
-0.103872366 -0.043632187 -0.0012736544 -0.10510376 -0.016525542 -0.0022045295 -0.017110467 -0.10482099
-0.07459571 -0.1520026 -0.2101708 -0.15671043 -0.05480558 -0.038545515 -0.08445289 -0.10390407
-0.14786343 -0.14534624 -0.0071817013 -0.11924181 -0.11403438 -0.13288033 -0.061651703 -0.057116088
-0.05980364 -0.09323381 -0.10582188 -0.14733166 -0.036240887 0.06471479 -0.050265796 -0.133143
-0.11777543 -0.05960846 -0.014362738 0.020124523 -0.13232608 -0.11858547 -0.005200405 -0.01912869
0.004154355 0.0042433497 0.01706031 0.06409846 -0.02100545 -0.011407247 -0.045973714 -0.124751404
-0.111798905 -0.032040946 -0.034122135 0.21078606 -0.07484424 -0.014801676 -0.13916467 0.0034066301
-0.012590647 0.02716677 0.114271425 0.020592947 -0.032783367 -0.06900867 0.02021582 -0.006304401
0.036466062 0.038994156 -0.051584166 -0.09748098 -0.054710764 -0.034012727 -0.05150928 -0.14125304
-0.054752138 -0.040492173 -0.09064594 0.011533222 -0.22022447 0.024898274 -0.21629028 -0.1613004
0.06610009 -0.011929038 -0.029670622 0.13958742 -0.005432096 -0.012514263 -0.118263 -0.13720047
0.009060462 0.076084845 -0.02995042 0.114015535 -0.19401011 -0.07316004 -0.04823631 0.0728788
-0.05581462 0.045693006 -0.018931545 0.017779198 0.022425804 0.0119425105 0.08770591 0.14137585
0.049510464 0.08808397 -0.06057793 0.07578881 0.05109179 -0.0138258785 -0.10087159 -0.053739324
00000000: 98c8 adbd 5a5c aebd 2e9f fabd 0072 65bd
00000010: 3711 98bd 9905 f4bd 0009 b93c 361e 913c
00000020: fc7f fdbd ad3d 2f3d 0ddc 98bc e001 01be
00000030: 89f6 a6bd 5516 5b3d ee96 aabc 5108 f5bc
00000040: 4c70 21be 9838 bcbc 98ce 763d d0cf a43d
00000050: e966 61bb 7a41 6d3c 0f57 a7bd 3ab3 a9bd
00000060: a156 0ebd 6c19 1b3b 781c 853d a511 013d
00000070: 3328 e6bb ccd9 97bc 4d72 9c3c c9b4 27bd
00000080: cd48 4cba f0f2 133d b8bc 03bd a603 26bd
00000090: d5a9 c13d 1624 853d eed4 8a3d 4516 27bd
000000a0: 2230 3d3d 2597 04bd 3167 d03b 26a7 eebc
000000b0: be7c b3bd 4a12 38bd d267 18be b7e1 01be
000000c0: abbe f1bd bba3 11bd a86e 07be af8b dabd
000000d0: 988d e2bd 06c4 03be d3da 99bc cf9e 00be
000000e0: 25b3 4dbe a670 d4bc 4214 15be 6f3d 51be
000000f0: 780e 00bd 70c3 ebbd 2529 653d d2eb b63c
00000100: 1748 82bd 2bce cdbb 5335 10bb 6c7f b73d
00000110: ae11 03be 204e 64be 45d9 883d 4d8c babd
00000120: cc08 e8bb 57ee 923d 3491 c03c 8ad2 ccbc
00000130: 8949 2ebe 640b dc3d a494 da3d 2041 fd3c
00000140: 8ffc 06bc ad55 c5bd 9907 36bd f1a6 94bd
00000150: 0229 8bbd 6b77 2ebd cf0d 6c3c c71c 5fbd
00000160: 6b43 80bd 2912 9ebd c29a f5bc eb7b f0bc
00000170: b671 183d 7040 173e 97bc 00bc 5997 873d
00000180: 176b 823d 8c7d 393e 6d80 21bd 9db6 10be
00000190: 7970 f53c 4dfe 8a3c 4d94 bdbd 9d2e 90bd
000001a0: 8f7c 33be 1a0e bf3b f821 b1bd ceb5 34bd
000001b0: 021d 01be 1037 94bd ae3f 32be f37b 643d
000001c0: 36b2 31be 1473 2ebd 74f8 f3bb fe4d 683d
000001d0: 751d 43bd 66ba 073c 1fc2 05be f627 efbd
000001e0: 968c 2fbe 13a7 b5bc eb6c a7bd 585c 10bc
000001f0: b239 00be ef41 a4bd 4d5a fdbd f998 f9bc
00000200: cabe f7bd 3c44 06bd 3bbe 8dbc f278 edbc
00000210: e609 ca3c fc74 27bd dd97 b43d d7c0 89bc
00000220: 06b9 27be d4b2 5bbd 03e1 d5bd dc51 363d
00000230: 792c dbbd 136e acbd 3730 723d 3d64 f2bb
00000240: 09bb d4bd aab7 32bd c0f0 a6ba a440 d7bd
00000250: 9360 87bc de79 10bb 402b 8cbc 63ac d6bd
00000260: a3c5 98bd 92a6 1bbe 0437 57be b378 20be
00000270: d17b 60bd e7e1 1dbd a3f5 acbd a8cb d4bd
00000280: 8369 17be a5d5 14be 7a54 ebbb 0d35 f4bd
00000290: db8a e9bd c811 08be 7f86 7cbd 8ff2 69bd
000002a0: a9f4 74bd 5ef1 bebd 24b9 d8bd 1cde 16be
000002b0: 5371 14bd 3089 843d 82e3 4dbd a356 08be
000002c0: 3f34 f1bd 0028 74bd b051 6bbc 2fdc a43c
000002d0: 7d80 07be f0dc f2bd 2968 aabb c5b3 9cbc
000002e0: 4121 883b cc0b 8b3b 10c2 8b3c 0e46 833d
000002f0: 9f13 acbc 76e5 3abc ef4e 3cbd aa7d ffbd
00000300: d3f6 e4bd 5e3d 03bd a7c3 0bbd 4dd8 573e
00000310: f047 99bd bb82 72bc 2f81 0ebe c541 5f3b
00000320: 0049 4ebc d98c de3c 2307 ea3d 8ab2 a83c
00000330: da47 06bd 6b54 8dbd a69b a53c 2695 cebb
00000340: 705d 153d 56b8 1f3d eb49 53bd 1ca4 c7bd
00000350: 6518 60bd ee50 0bbd 65fb 52bd a3a4 10be
00000360: c743 60bd 1fdb 25bd 94a4 b9bd d7f5 3c3c
00000370: 8682 61be 77f7 cb3c 337b 5dbe ef2b 25be
00000380: 7c5f 873d 0372 43bc ce0f f3bc 01f0 0e3e
00000390: b9ff b1bb a008 4dbc df33 f2bd 487e 0cbe
000003a0: 5572 143c 5fd2 9b3d 955a f5bc fa80 e93d
000003b0: 96aa 46be eed4 95bd 7093 45bd 7b41 953d
000003c0: df9d 64bd 9728 3b3d 5416 9bbc aea5 913c
000003d0: 52b6 b73c 85aa 433c 289f b33d d5c4 103e
000003e0: 7ccb 4a3d 5e65 b43d 9020 78bd 2a37 9b3d
000003f0: a045 513d f085 62bc c495 cebd c41d 5cbd

fc1.bias f4 [128]
0.057239488 0.42520973 -0.035717607 0.39479944 -0.019491928 -0.021859333 0.24419306 -0.1230018
0.008538376 -0.067189656 0.14572197 0.04225254 -0.33159617 0.11788921 0.025759488 0.22488344
-0.07405841 -0.08208017 -0.072076485 -0.09228908 0.011406583 0.098177955 -0.17501168 0.11670396
-0.19744003 0.07393433 0.008290273 0.13240053 0.04593439 -0.0088833235 -0.09941142 -0.11378873
-0.12913997 -0.031400315 0.09839958 0.06702337 0.009949846 0.17706771 0.31826374 -0.22842523
0.2985799 0.113600075 -0.12538573 -0.316562 0.052002367 0.003942782 -0.14338702 -0.009786826
-0.1208284 0.15214488 -0.11617492 0.16805929 0.01727145 0.11640771 0.06259066 0.050054297
0.10375155 0.076061435 0.31057897 -0.17299995 -0.15908739 0.006658424 0.156639 -0.013636081
-0.10817474 -0.11992483 0.07471297 -0.095796965 -0.084567726 -0.04426141 0.23398717 -0.108163446
-0.08161281 -0.09242255 -0.11107856 -0.077960484 0.1894587 0.101963185 -0.102902174 0.06434638
-0.0777311 0.16190502 -0.01532479 0.0041712048 -0.09842855 -0.039899822 -0.23485494 -0.066940606
0.27643242 -0.0901922 0.093753666 -0.035746437 0.039799288 0.12972185 0.18789339 -0.1218984
-0.021594802 0.2144223 0.019187734 0.3589206 0.08009731 0.26044014 0.03377314 -0.07429571
-0.24306883 -0.16190371 0.21330388 -0.1608426 -0.14972134 -0.017103573 0.05104481 0.07640416
0.30952922 -0.124579646 -0.07465932 -0.13584657 -0.014447123 0.25057063 -0.044861574 0.0028142002
0.09787116 -0.09905338 -0.071189664 0.17607632 -0.13239196 0.086560935 -0.037613533 0.023709506
00000000: f473 6a3d 17b5 d93e a04c 12bd 2723 ca3e
00000010: 89ad 9fbc 5812 b3bc bf0d 7a3e 5ee8 fbbd
00000020: 8be4 0b3c bb9a 89bd 2438 153e 0011 2d3d
00000030: f9c6 a9be e66f f13d 9005 d33c d847 663e
00000040: f0ab 97bd a619 a8bd d69c 93bd 0f02 bdbd
00000050: ade2 3a3c 8611 c93d 4336 33be 7c02 ef3d
00000060: b82d 4abe e26a 973d edd3 073c 0194 073e
00000070: b325 3c3d 5c8b 11bc 3798 cbbd 110a e9bd
00000080: 453d 04be 9e9d 00bd b885 c93d 8c43 893d
00000090: ae04 233c 3d51 353e 77f3 a23e 4ee8 69be
000000a0: 77df 983e 28a7 e83d 1e65 00be 6a14 a2be
000000b0: 6f00 553d 7432 813b 0cd4 12be ec58 20bc
000000c0: e174 f7bd decb 1b3e 1eed edbd bc17 2c3e
000000d0: db7c 8d3c 2a67 ee3d 882f 803d bc05 4d3d
000000e0: b17b d43d 19c6 9b3d 3504 9f3e e626 31be
000000f0: cee7 22be e92e da3b f965 203e de69 5fbc
00000100: b88a ddbd 269b f5bd 1d03 993d 3331 c4bd
00000110: d831 adbd 744b 35bd 559a 6f3e cc84 ddbd
00000120: 9e24 a7bd 0948 bdbd 287d e3bd bfa9 9fbd
00000130: 7601 423e 13d2 d03d 60be d2bd 09c8 833d
00000140: 7c31 9fbd 6eca 253e d414 7bbc 9aae 883b
00000150: e894 c9bd ff6d 23bd d07d 70be 2818 89bd
00000160: 8d88 8d3e b0b6 b8bd ec01 c03d db6a 12bd
00000170: 9404 233d ced5 043e 2067 403e dea5 f9bd
00000180: 95e7 b0bc 8591 5b3e 982f 9d3c 71c4 b73e
00000190: 0f0a a43d 6958 853e b455 0a3d 5928 98bd
000001a0: 09e7 78be 16ca 25be 556c 5a3e ecb3 24be
000001b0: 8d50 19be cb1c 8cbc 5d14 513d c979 9c3d
000001c0: 9d7a 9e3e 9d23 ffbd fce6 98bd 5d1b 0bbe
000001d0: a0b3 6cbc cb4a 803e c5c0 37bd 726e 383b
000001e0: ad70 c83d 80dc cabd e3cb 91bd 5a4d 343e
000001f0: c291 07be dc46 b13d a610 1abd 703a c23c

fc2.weight f4 [64, 128]
0.0019151432 -0.13384914 0.0072557586 -0.13454126 -0.16532345 -0.022714686 0.049530327 0.024720078
-0.03936135 -0.13408688 -0.11075565 -0.06354041 -0.1265327 0.045424927 -0.008866787 -0.123336375
0.019554496 0.08041587 -0.20368266 -0.037825357 -0.06578854 0.084146254 -0.037188567 0.079049684
0.03944756 -0.056601066 -0.20651022 -0.028611002 -0.07069303 -0.19059187 -0.018955054 -0.06920704
0.08941083 0.031947706 0.04823467 -0.03735824 -0.079244174 -0.15564731 0.020272106 -0.16761386
0.07333025 -0.0037972087 0.040183946 0.03876846 0.041804254 0.04113721 -0.024024788 -0.038158167
0.076452665 -0.15509604 0.08410548 -0.014837013 -0.02684603 0.011196876 0.028321968 -0.22870038
-0.017741714 0.020767597 -0.07558177 0.034527 -0.035896722 0.0987074 -0.087572195 0.057000984
0.04787506 -0.012789999 -0.17762452 -0.024400424 0.027320363 -0.09741843 0.039156735 -0.006473975
-0.113011196 -0.07766535 0.10868769 0.038297363 0.032883737 -0.09513952 -0.06585693 -0.19298819
-0.07395839 0.0015068646 0.005555957 0.09466333 0.026343968 0.04545512 0.04464443 -0.12548338
-0.19371657 0.0020725578 -0.019025752 -0.023760794 0.020711629 0.033446137 -0.022348797 0.12594348
0.04176976 -0.06343726 -0.13245854 -0.06413659 -0.17972969 -0.101835266 -0.11417819 0.020928578
-0.09020036 0.029580317 -0.101252444 0.015484721 0.06350908 0.08104813 -0.13320602 -0.24908927
-0.07629143 0.060262118 0.047759607 0.047255944 0.009426675 -0.15715432 -0.01902561 -0.21676293
0.0757681 -0.11075396 -0.053733975 -0.08924735 0.023004023 0.04282233 -0.2418085 -0.013684332
-0.045076378 0.049129844 -0.15249282 0.014663493 0.057889353 -0.16803913 0.026475944 0.034138117
-0.0023470966 -0.03624303 -0.004182221 -0.04520481 0.09374086 -0.022671923 -0.008112238 -0.04866472
-0.10402548 -0.08049919 0.047456738 -0.037024654 -0.014374956 -0.07057132 -0.14393978 0.094452
0.07461927 -0.13172555 0.0030149536 -0.14598785 -0.054465845 0.028816132 -0.16869625 -0.059231825
-0.011670788 -0.14790776 -0.011792542 -0.019727513 -0.012256586 -0.063596964 0.092368916 -0.053651482
0.15229747 -0.17445928 -0.09316972 0.0013397178 0.023973566 -0.057616677 0.03091522 -0.17047462
-0.058028843 -0.13160571 -0.10067926 -0.07657306 -0.051132556 -0.009723661 -0.07496577 -0.058074366
-0.059455693 -0.013742943 -0.10965787 -0.10095604 -0.100112095 0.012073342 -0.1477588 -0.015970463
-0.23566963 -0.024079071 -0.07534353 0.06371513 -0.097300306 -0.03912451 -0.039198812 -0.015011114
-0.12583612 -0.025828665 -0.14838533 -0.012413582 -0.024578258 -0.04459106 0.024973644 -0.028818863
-0.03996787 -7.065922e-05 -0.18345824 0.11388598 -0.020886237 0.07780116 0.042699143 -0.19531536
0.0084272325 -0.037739392 -0.07431665 0.0051478245 0.015566391 -0.035749145 0.03889618 0.0075553157
-0.17550154 0.019649195 -0.060749225 -0.0803546 -0.02179573 0.026298214 -0.06938851 -0.019312117
-0.074843414 0.08063575 -0.10188561 -0.10885926 -0.025648577 -0.018893765 0.06598371 0.016256103
-0.03279874 0.033186626 -0.025938483 -0.12715738 -0.02850061 -0.12223464 0.013445052 -0.040141817
-0.00848473 -0.09276979 -0.07922111 -0.049962923 -0.055674963 0.09054329 0.05934508 -0.11011823
00000000: 8b05 fb3a c00f 09be b7c1 ed3b 2fc5 09be
00000010: 8d4a 29be 2614 babc 50e0 4a3d c381 ca3c
00000020: 5e39 21bd 124e 09be dcd3 e2bd 7921 82bd
00000030: ca91 01be 7d0f 3a3d 0046 11bc c897 fcbd
00000040: c030 a03c 13b1 a43d 3092 50be c3ee 1abd
00000050: 24bc 86bd df54 ac3d 0a53 18bd cde4 a13d
00000060: c493 213d 85d6 67bd 6a77 53be 9f61 eabc
00000070: 82c7 90bd 842a 43be a147 9bbc 6cbc 8dbd
00000080: 061d b73d 99db 023d b891 453d f404 19bd
00000090: c54a a2bd 0262 1fbe b011 a63c f8a2 2bbe
000000a0: 2c2e 963d 97da 78bb ec97 243d adcb 1e3d
000000b0: f03a 2b3d 7e7f 283d a2cf c4bc bd4b 1cbd
000000c0: 3793 9c3d 7fd1 1ebe 7e3f ac3d f116 73bc
000000d0: 35ec dbbc 1a73 373c 7903 e83c 6f30 6abe
000000e0: 1257 91bc cf20 aa3c 9dca 9abd 2f6c 0d3d
000000f0: 7108 13bd 1b27 ca3d 0d59 b3bd dd79 693d
00000100: a418 443d 258d 51bc 34e3 35be 66e3 c7bc
00000110: f4ce df3c 5083 c7bd d062 203d a323 d4bb
00000120: 6a72 e7bd 030f 9fbd a797 de3d b2dd 1c3d
00000130: 19b1 063d 82d8 c2bd 00e0 86bd b29e 45be
00000140: 7f77 97bd fc81 c53a bf0e b63b d9de c13d
00000150: 4ecf d73c 262f 3a3d 14dd 363d b77e 00be
00000160: a35d 46be c0d3 073b e5db 9bbc ffa5 c2bc
00000170: 6fab a93c d1fe 083d d314 b7bc 54f7 003e
00000180: c516 2b3d 65eb 81bd 36a3 07be 0b5a 83bd
00000190: 0f0b 38be 028f d0bd 41d6 e9bd 6972 ab3c
000001a0: f7ba b8bd 6c52 f23c 715d cfbd a1b3 7d3c
000001b0: 0c11 823d 90fc a53d 2967 08be 4211 7fbe
000001c0: ae3e 9cbd 69d5 763d 949f 433d 738f 413d
000001d0: 5772 1a3c 10ed 20be 99db 9bbc 1af7 5dbe
000001e0: 4e2c 9b3d f9d2 e2bd 2818 5cbd 51c7 b6bd
000001f0: ef72 bc3c 7866 2f3d a69c 77be 4034 60bc
00000200: 02a2 38bd 603c 493d 1427 1cbe 263f 703c
00000210: 631d 6d3d 7312 2cbe 14e4 d83c 69d4 0b3d
00000220: bfd1 19bb 9273 14bd 030b 89bb ae28 39bd
00000230: 35fb bf3d 78ba b9bc 31e9 04bc a854 47bd
00000240: 500b d5bd c2dc a4bd ff61 423d 2aa7 17bd
00000250: ef84 6bbc b287 90bd f364 13be 0d70 c13d
00000260: fdd1 983d 10e3 06be 8796 453b d77d 15be
00000270: 9417 5fbd cf0f ec3c b6be 2cbe 129d 72bd
00000280: d536 3fbc 2275 17be 8235 41bc 989b a1bc
00000290: d9cf 48bc 203f 82bd ea2b bd3d a8c1 5bbd
000002a0: def3 1b3e 74a5 32be c4cf bebd 7899 af3a
000002b0: 3664 c43c 77ff 6bbd ea41 fd3c e690 2ebe
000002c0: a7af 6dbd a6c3 06be ee30 cebd 56d2 9cbd
000002d0: 5f70 51bd fd4f 1fbc a787 99bd 63df 6dbd
000002e0: d087 73bd 152a 61bc 4e94 e0bd 0ac2 cebd
000002f0: 9207 cdbd 44cf 453c 154e 17be 7dd4 82bc
00000300: 6153 71be 7941 c5bc b54d 9abd 147d 823d
00000310: 6245 c7bd 0641 20bd ef8e 20bd 2df1 75bc
00000320: 2fdb 00be a396 d3bc 53f2 17be 5662 4bbc
00000330: 5858 c9bc 1ea5 36bd 8795 cc3c 8915 ecbc
00000340: 59b5 23bd e12e 94b8 7adc 3bbe 0d3d e93d
00000350: 9d19 abbc 3756 9f3d 4ce5 2e3d c000 48be
00000360: 6012 0a3c 9f94 1abd 5433 98bd 15af a83b
00000370: 2d0a 7f3c b26d 12bd 9a51 1f3d 9592 f73b
00000380: adb6 33be 59f7 a03c 2ed4 78bd f490 a4bd
00000390: f58c b2bc 5a6f d73c 901b 8ebd 7234 9ebc
000003a0: 8147 99bd 5b24 a53d 67a9 d0bd 9bf1 debd
000003b0: f71c d2bc 19c7 9abc 7822 873d 852b 853c
000003c0: f957 06bd b3ee 073d f17c d4bc 8b35 02be
000003d0: 1c7a e9bc 2856 fabd a348 5c3c bf6b 24bd
000003e0: 8903 0bbc 16fe bdbd ad3e a2bd eca5 4cbd
000003f0: 6e0b 64bd c36e b93d d413 733d ab85 e1bd

fc2.bias f4 [64]
-0.12895666 0.051568635 -0.030375944 0.00017518458 -0.041494403 -0.010815648 -0.00717829 0.16033334
0.60166585 0.16531362 0.30213028 0.4569329 -0.15436788 -0.056930803 -0.34006765 -0.038931634
-0.074369505 0.30420667 0.12617333 -0.11806655 0.14934352 0.23098758 0.008826475 0.014101998
0.23857546 0.040898617 0.5402372 -0.12250326 0.21360996 -0.06018105 -0.100662604 -5.7180834e-05
-0.15873109 0.13162705 -0.04214264 -0.14245136 0.22855829 0.25049227 0.4020875 0.33282897
0.08285825 -0.092535585 0.35883152 0.003364385 -0.15062675 0.035281353 -0.08114727 0.47665772
-0.052554432 -0.17604695 -0.084397726 0.13326429 -0.13655452 -0.031352684 0.21972874 0.34651604
-0.10300672 -0.042101692 0.14246285 -0.09630138 -0.11594056 0.0879043 0.13156275 0.29981357
00000000: 370d 04be a239 533d f9d6 f8bc c1b1 3739
00000010: 09f6 29bd 1e34 31bc dc37 ebbb 6c2e 243e
00000020: c606 1a3f f947 293e d2b0 9a3e 1cf3 e93e
00000030: 9d12 1ebe 4630 69bd 591d aebe c776 1fbd
00000040: 0a4f 98bd fac0 9b3e 9533 013e e0cc f1bd
00000050: 82ed 183e 0288 6c3e eb9c 103c 110c 673c
00000060: 204d 743e 4f85 273d fc4c 0a3f fde2 fabd
00000070: 92bc 5a3e 6880 76bd 3228 cebd 74d5 6fb8
00000080: 678a 22be 3ec9 063e c39d 2cbd c5de 11be
00000090: 2f0b 6a3e 8640 803e 6ade cd3e 8f68 aa3e
000000a0: 96b1 a93d 4c83 bdbd c4b8 b73e 047d 5c3b
000000b0: e63d 1abe 2e83 103d 8a30 a6bd 7b0c f43e
000000c0: 5143 57bd a745 34be b7d8 acbd 6f76 083e
000000d0: f3d4 0bbe ac6b 00bd 9200 613e 8d6a b13e
000000e0: 30f5 d2bd d372 2cbd c8e1 113e a839 c5bd
000000f0: 3f72 edbd 2b07 b43d 63b8 063e 2a81 993e

fc3.weight f4 [5, 64]
-0.10696106 0.06653507 -0.23413204 -0.01810873 -0.07431476 -0.1261914 -0.0010804279 -0.20024975
0.021986408 0.12237721 0.087368004 -0.13926975 -0.052599136 0.032440044 0.0020957335 -0.049303845
-0.1253607 -0.16006011 0.053731453 -0.24923998 0.025981022 -0.07643069 -0.047099512 0.12297173
-0.09058356 0.043208655 -0.018674541 -0.061487157 -0.9725887 -0.025862297 0.017587706 0.10121619
-0.56992793 0.08517673 -0.1156059 0.01149055 -0.0032202438 -0.20121048 0.07515117 0.054764234
0.16306199 -0.09799885 -0.12672375 -0.14021315 -0.18355243 -0.18223117 0.02367969 -0.13740084
-0.13140705 -0.066487804 -0.40949163 -0.06072158 -0.06826993 -0.1526346 0.14426212 0.022062717
-0.12527804 -0.16622311 0.0564529 -0.1464938 -0.052553132 -0.20104486 0.084982015 0.071110055
-0.004338665 0.023496233 -0.017969346 0.047657248 0.08149365 -0.0036582078 -0.09489959 0.04555072
-0.097837165 0.06013372 -0.015420212 0.106187716 0.023701865 0.072771944 0.07415266 -0.0028472221
-0.10424536 0.15649071 -0.04705674 -0.014142642 0.08493988 -0.06662207 0.114121266 -0.15347004
-0.10631555 0.02943239 0.07155597 -0.14891247 0.14070532 -0.03366494 0.050963763 0.14542833
0.09907915 0.050884284 0.013502551 -0.05288051 0.14745979 0.08229975 0.18133749 -0.09558348
0.13481686 0.066231735 0.0527493 0.16838712 -0.1305237 0.10536855 -0.045501683 -0.045440394
-0.12711076 -0.080475606 0.2150748 0.05880475 -0.08904386 0.084814794 -0.092345186 0.04366538
-0.06758113 0.09595088 0.06970788 -0.054209743 -0.031522814 0.051084623 -0.015081631 -0.0267497
0.024169574 -0.022863619 -0.037052013 -0.062419266 0.027478652 -0.071905695 -0.030638508 0.061648175
-0.11001021 0.07238763 0.090281844 0.10035524 -0.029188706 0.027125658 0.102675945 0.048115175
-0.20434248 0.12610301 0.042552453 -0.13324685 0.09419679 -0.048782926 0.12118277 -0.050163023
0.19828558 -0.035793316 0.09818165 -0.03235426 0.030227639 0.07738494 0.073263265 0.21964575
0.1149649 0.06504864 -0.101643935 0.055133123 0.0991842 0.12591062 -0.07290371 -0.21068345
0.1852915 -0.02337943 0.066372536 -0.12155032 -0.0139176315 0.05049218 -0.06578669 -0.14172067
0.08810407 -0.068631254 0.16561976 0.08886835 -0.03281413 -0.05667136 -0.0028855037 0.037769634
-0.05505744 0.12452281 0.019108659 -0.07775017 0.024231903 0.07783095 0.16487247 -0.054651737
-0.00979058 0.05142075 0.0034765403 -0.02286864 -0.059161637 -0.042942688 -0.104093365 -0.010502361
-0.014628059 -0.062600546 0.1070936 -0.07417975 -0.12310732 0.027222842 0.08091788 -0.13146637
-0.08403104 0.10499215 0.07315777 0.017295083 0.021850623 0.122441314 -0.00023408195 -0.09873176
-0.024956986 0.029303199 0.15029986 0.007379491 -0.0356442 -0.06574571 0.09217618 0.09469735
-0.0959091 -0.08601915 -0.18083781 -0.019532725 -0.0019515301 -0.106893174 0.06904107 0.05752935
0.13694288 0.087703764 0.13590938 0.0121772345 -0.011454255 -0.051226906 -0.10655161 0.06430052
0.046820786 -0.12826511 -0.07477687 0.064190365 -0.022451987 -0.010475289 -0.05357553 0.1682575
0.1023941 -0.016475022 -0.005619159 0.078250356 -0.017302213 -0.009860584 0.089511774 0.07260011
00000000: 660e dbbd 8a43 883d 4fc0 6fbe c258 94bc
00000010: 5632 98bd 5238 01be 259d 8dba 450e 4dbe
00000020: d71c b43c e7a0 fa3d ffed b23d bb9c 0ebe
00000030: 3172 57bd dadf 043d 9358 093b d4f2 49bd
00000040: 8e5e 00be cce6 23be 8315 5c3d c438 7fbe
00000050: 27d6 d43c b287 9cbd 6beb 40bd 9ad8 fb3d
00000060: e083 b9bd 8ffb 303d 5afb 98bc f5d9 7bbd
00000070: 93fb 78bf 2bdd d3bc 1814 903c 6f4a cf3d
00000080: cce6 11bf 2371 ae3d c9c2 ecbd dc42 3c3c
00000090: ba0a 53bb 1f0a 4ebe dbe8 993d 7650 603d
000000a0: b9f9 263e 9fb3 c8bd dfc3 01be 0994 0fbe
000000b0: 2bf5 3bbe cf9a 3abe e9fb c13c ceb2 0cbe
000000c0: 928f 06be c22a 88bd e3a8 d1be 31b7 78bd
000000d0: 1bd1 8bbd 3f4c 1cbe 73b9 133e dfbc b43c
000000e0: e348 00be 6436 2abe 283b 673d 7902 16be
000000f0: f441 57bd b4de 4dbe 0d0b ae3d 26a2 913d
00000100: 5c2b 8ebb 2c7b c03c 7334 93bc 3f34 433d
00000110: 25e6 a63d 8bbe 6fbb b75a c2bd 6493 3a3d
00000120: da5e c8bd c74e 763d 0fa5 7cbc f278 d93d
00000130: 6a2a c23c 7509 953d 5add 973d 7698 3abb
00000140: 977e d5bd 1a3f 203e 91be 40bd 8ab6 67bc
00000150: f6f4 ad3d 2771 88bd 69b8 e93d 4027 1dbe
00000160: f8bb d9bd 321c f13c f08b 923d 837c 18be
00000170: 0e15 103e 40e4 09bd 61bf 503d 2aeb 143e
00000180: 02ea ca3d 0a6c 503d ce39 5d3c 3c99 58bd
00000190: b3ff 163e c58c a83d 89b0 393e 46c1 c3bd
000001a0: 6e0d 0a3e 81a4 873d a60f 583d ac6d 2c3e
000001b0: 01a8 05be 77cb d73d f95f 3abd b51f 3abd
000001c0: 5329 02be 65d0 a4bd 923c 5c3e 40dd 703d
000001d0: a15c b6bd 61b3 ad3d 791f bdbd 78da 323d
000001e0: fa67 8abd e581 c43d 01c3 8e3d 090b 5ebd
000001f0: 111e 01bd 1c3e 513d f218 77bc 3022 dbbc
00000200: 45ff c53c 7c4c bbbc dac3 17bd 58ab 7fbd
00000210: e91a e13c 4b43 93bd 9cfd fabc cc82 7c3d
00000220: 084d e1bd f73f 943d b0e5 b83d 0c87 cd3d
00000230: 271d efbc a136 de3c c447 d23d 6b14 453d
00000240: 283f 51be 2621 013e 7b4b 2e3d dd71 08be
00000250: 3fea c03d 9bd0 47bd ac2e f83d be77 4dbd
00000260: 600b 4b3e 039c 12bd 7613 c93d e785 04bd
00000270: f49f f73c ff7b 9e3d 0d0b 963d d1ea 603e
00000280: b872 eb3d 3938 853d b22a d0bd 45d3 613d
00000290: 1621 cb3d b7ee 003e 8a4e 95bd 67bd 57be
000002a0: 0ebd 3d3e 3886 bfbc 53ee 873d 60ef f8bd
000002b0: c706 64bc e3d0 4e3d 2cbb 86bd 391f 11be
000002c0: e86f b43d 8b8e 8cbd 3a98 293e 9c00 b63d
000002d0: 1c68 06bd 3a20 68bd b81a 3dbb 55b4 1a3d
000002e0: e983 61bd d105 ff3d c389 9c3c 7b3b 9fbd
000002f0: fc81 c63c d565 9f3d 54d4 283e 80da 5fbd
00000300: ab68 20bc 909e 523d abd6 633b 0457 bbbc
00000310: 7953 72bd ace4 2fbd e72e d5bd 1812 2cbc
00000320: 87aa 6fbc b734 80bd e453 db3d 8eeb 97bd
00000330: b11f fcbd 7002 df3c 46b8 a53d 1f9f 06be
00000340: 7718 acbd 2006 d73d bed3 953d 6bae 8d3c
00000350: 1400 b33c 83c2 fa3d e573 75b9 e133 cabd
00000360: 9872 ccbc 430d f03c 35e8 193e a8cf f13b
00000370: a7ff 11bd b0a5 86bd ddc6 bc3d aff0 c13d
00000380: fd6b c4bd cf2a b0bd 8c2d 39be 1803 a0bc
00000390: 7cca ffba cfea dabd 6865 8d3d e5a3 6b3d
000003a0: c13a 0c3e 089e b33d d42b 0b3e 0683 473c
000003b0: a1aa 3bbc 4ed3 51bd bb37 dabd feaf 833d
000003c0: 27c7 3f3d ee57 03be 9e24 99bd 3d76 833d
000003d0: 3bed b7bc 8ca0 2bbc 0472 5bbd b24b 2c3e
000003e0: ffb3 d13d a0f6 86bc ec20 b8bb b941 a03d
000003f0: 5fbd 8dbc 498e 21bc f351 b73d 5eaf 943d

fc3.bias f4 [5]
0.12716499 -0.0155154625 -0.3749925 0.19470438 0.18917614
00000000: 8a37 023e 9134 7ebc 04ff bfbe 9660 473e
00000010: 64b7 413e
